model_forward/model_nonplant-epoch=92.pth (torch, 123061 bytes, 14 tensors)

net.0.weight f4 [128, 76]
0	0x0022760a	3.164751e-39
1	0x00a6f495	1.5332432e-38
2	0x8091ab65	-1.3377632e-38
3	0x808f1abc	-1.3142066e-38
4	0xbd25c498	-0.04047069
5	0xbc9bcf3e	-0.01901972
6	0x007c7398	1.1429069e-38
7	0x0081a458	1.1905734e-38
8	0x006c8bcb	9.968382e-39
9	0x3c3ff148	0.011715241
10	0x3c9dce12	0.019263301
11	0x3bdfdb58	0.0068315677
12	0x3c12d067	0.00896082
13	0xbc47bad3	-0.012190538
14	0x0045a0e7	6.39437e-39
15	0xb62e6470	-2.5986483e-06
16	0x815d310c	-4.062648e-38
17	0xb62e6470	-2.5986483e-06
18	0x3af9e8b6	0.0019066546
19	0x3c15986c	0.0091305785
20	0x3c220e05	0.009891038
21	0xbc365176	-0.01112782
22	0x3c7cabfe	0.0154218655
23	0xb8daa88d	-0.00010426445
24	0xbb969c64	-0.00459628
25	0x3c01e00f	0.007926955
26	0x3bd77228	0.006574888
27	0xbf14d677	-0.5813975
28	0x3d0e07b9	0.034675334
29	0xbd3d2302	-0.046175964
30	0x3de8fa8d	0.11375914
31	0x3e7bb498	0.2458061
32	0xbd3da9ce	-0.046304516
33	0xbd6e2bdc	-0.058147296
34	0xbd32ce3a	-0.043653704
35	0xbb665a46	-0.0035149022
36	0xbda3463c	-0.079723805
37	0x81a41080	-6.026776e-38
38	0xbeafed61	-0.34360793
39	0x3cc905be	0.02453887
40	0xbc45de7d	-0.012076971
41	0x3d8901e8	0.06689817
42	0x3e4500c9	0.19238581
43	0xbd74ea8b	-0.05979399
44	0x3d0c6de4	0.034284487
45	0x3c266fe4	0.010158513
46	0xbcd4d6c9	-0.025981324
47	0x3c76ad1b	0.01505592
48	0xbeb01fe9	-0.34399346
49	0x812aca22	-3.1369092e-38
50	0x3c15399b	0.0091079725
51	0xbd775d0d	-0.060391475
52	0x80575d60	-8.023185e-39
53	0xbc4e8d06	-0.012606865
54	0xbcbd7cee	-0.02313086
55	0x3daf85a7	0.08570414
56	0xbeb7864f	-0.35844657
57	0x3dcecc7d	0.10097597
58	0xbdf48192	-0.11938776
59	0xbe8d23c6	-0.27566355
60	0x3da68ed0	0.08132708
61	0xbc855e31	-0.016280266
62	0x3ec3349e	0.3812608
63	0x3d6de8d3	0.058083367
64	0xbeae0e03	-0.33995065
65	0x3e060d56	0.13091025
66	0xbe3635cf	-0.17793964
67	0xbdac78e6	-0.08421497
68	0x3cc31cde	0.023817476
69	0x3d677674	0.05650945
70	0x3d161451	0.03664047
71	0xbd9c1701	-0.07621575
72	0xbd6b9acc	-0.057520673
73	0x3d4fc27e	0.05072259
74	0xbe28ae7f	-0.16472815
75	0xbe01027c	-0.12598604
76	0x0190c930	5.3185936e-38
77	0x8185133a	-4.888407e-38
78	0x811ed877	-2.9175323e-38
79	0x80b63027	-1.6731334e-38
80	0x3cce8245	0.025208602
81	0x3bb0b3b9	0.0053925184
82	0x80b73b32	-1.6827131e-38
83	0x80f96e29	-2.2906557e-38
84	0x018811d5	4.99841e-38
85	0xbbf9af1c	-0.0076197516
86	0x39cd09d2	0.00039107964
87	0x3b8bf64f	0.0042713056
88	0x3baf4b18	0.005349528
89	0xbc3f732a	-0.011685172
90	0x81af959c	-6.4499526e-38
91	0xb645d2a9	-2.9477908e-06
92	0x012886ab	3.0953346e-38
93	0xb645d2a9	-2.9477908e-06
94	0x3c1d5470	0.009602651
95	0x3d2aa5d2	0.041662045
96	0x3c68d094	0.014209885
97	0xbc006b9b	-0.007838155
98	0x3bb1661b	0.0054137832
99	0xb995c98c	-0.0002856966
100	0x3bb82e2d	0.005620739
101	0xbade7445	-0.0016971907
102	0x3bfeda85	0.0077775144
103	0x3c43e678	0.0119568035
104	0x3b2bf8f8	0.0026240926
105	0xbad1a9e9	-0.0015996072
106	0xbab35ccc	-0.0013684272
107	0x3b009a31	0.0019623155
108	0xbb63f275	-0.0034781967
109	0xbc40aefb	-0.011760469
110	0xbbc34074	-0.005958611
111	0xbbe49cf9	-0.0069767204
112	0xbbf8492b	-0.0075770817
113	0x00657010	9.315586e-39
114	0xbc64eb68	-0.013972141
115	0x3bac2c70	0.005254321
116	0x3c328828	0.01089672
117	0xbb024900	-0.0019879937
118	0xbb23069b	-0.0024875763
119	0x3c86bcf7	0.016447527
120	0xbb8df697	-0.0043323743
121	0xbb816103	-0.0039483323
122	0xbb650bb8	-0.0034949612
123	0x391f0209	0.0001516418
124	0xbcbad6ce	-0.022807505
125	0x011b6350	2.8540257e-38
126	0x3ca86d12	0.020559821
127	0x3d53c59f	0.051702138
128	0x8095f14a	-1.3770047e-38
129	0xbc8d0166	-0.01721258
130	0xbc698c63	-0.014254662
131	0xbd17a0e8	-0.037018687
132	0x3e92d23a	0.28676015
133	0xbf332743	-0.69981784
134	0xbfa551ce	-1.291559
135	0x3dfb1717	0.122602634
136	0x3dadc13a	0.08484121
137	0xbe87c5a1	-0.26517966
138	0xbc2c5b8b	-0.010519872
139	0x3e01da33	0.12680893
140	0x3e5ad881	0.21371652
141	0xbd3088a7	-0.04309907
142	0xbd892083	-0.06695654
143	0xbe8541b8	-0.26026702
144	0x3db5e91f	0.08882355
145	0x3b609b12	0.0034272117
146	0xbc96ae2f	-0.018393604
147	0x3c7aaa44	0.015299384
148	0x3c4383c5	0.011933272
149	0x3cc2e329	0.023789959
150	0x3d85f920	0.065416574
151	0x3d8c5737	0.068525724
152	0x800312a0	-2.82188e-40
153	0x00c0b0d3	1.7695848e-38
154	0x008b93ac	1.2818109e-38
155	0x004fb77e	7.320829e-39
156	0x3caa24ef	0.020769564
157	0xbb5e8041	-0.0033950957
158	0x815cd83d	-4.0562762e-38
159	0x81924b68	-5.374013e-38
160	0x81b34e9d	-6.586702e-38
161	0x3b43539c	0.0029804474
162	0xbb4c0d3c	-0.0031135818
163	0x3a897938	0.0010488397
164	0xbb2cd4a4	-0.002637186
165	0x3b9e634e	0.0048336154
166	0x80a74940	-1.5362805e-38
167	0x36a1480a	4.8065604e-06
168	0x010e88b7	2.617937e-38
169	0x36a1480a	4.8065604e-06
170	0x3ab15274	0.0013528601
171	0xbc43360c	-0.011914741
172	0x3aefef67	0.00183056
173	0xba92543b	-0.0011164019
174	0xba699082	-0.0008909778
175	0x399cf518	0.00029937248
176	0xbb5bf958	-0.0033565369
177	0xbbdb24ea	-0.00668775
178	0x3a0818a9	0.0005191663
179	0x3d662dbb	0.056195956
180	0xbc8f332b	-0.017480453
181	0x39a4a683	0.00031404578
182	0xbc2caa63	-0.01053867
183	0xbb9a3fc5	-0.004707309
184	0x3b1a039b	0.0023500684
185	0xbc6f5535	-0.014607717
186	0xbbc6be06	-0.006065133
187	0xba514564	-0.00079830573
188	0x3b38c14f	0.0028191393
189	0x014ed080	3.7985816e-38
190	0x3cb4b100	0.022057056
191	0xbb2e8a1e	-0.0026632617
192	0x3cad568a	0.02115943
193	0x3c999cab	0.018751463
194	0x3a873347	0.0010314964
195	0x3bb88525	0.0056311064
196	0x3af9e755	0.0019066135
197	0xbbb13099	-0.0054074046
198	0x3b03039e	0.001999117
199	0x3b9187a3	0.004441218
200	0x3cb6b9eb	0.02230545
201	0x00e3b664	2.0912087e-38
202	0x38f2b166	0.00011572502
203	0xbc3b6316	-0.011437198
204	0x815922ff	-3.9881714e-38
205	0xbadb9c3e	-0.0016754938
206	0x3b90b5d9	0.004416209
207	0x3b98e54c	0.004666006
208	0xbde6505b	-0.11245795
209	0xbbfcb74a	-0.0077122794
210	0xbc5d2fc9	-0.013500162
211	0xbcb26d34	-0.021780588
212	0xbcf5e5e9	-0.030016856
213	0xbc89a59c	-0.016802602
214	0xbb884292	-0.0041583264
215	0xbc41257f	-0.011788725
216	0xbe252cf5	-0.16130431
217	0x3a63b48c	0.00086862664
218	0xbfc6905d	-1.5512806
219	0x3c88d37e	0.01670241
220	0x3e9725c9	0.29521015
221	0x3f2100f2	0.6289207
222	0xbd11b1f2	-0.035570092
223	0xbb04a5e9	-0.0020240492
224	0xbe1e8bd3	-0.15483026
225	0xbccbe166	-0.024887752
226	0xbd952f3b	-0.07284399
227	0xbdb732e2	-0.08945252
228	0x8095aeeb	-1.3746238e-38
229	0x815bbf4d	-4.03612e-38
230	0x01022bfa	2.390878e-38
231	0x801b4965	-2.505887e-39
232	0x3c8a7585	0.01690174
233	0xbc2be2c3	-0.010491076
234	0x80a0b512	-1.4758635e-38
235	0x805a7bcc	-8.309605e-39
236	0x80931690	-1.3507912e-38
237	0xbbf79e10	-0.0075566843
238	0x3afe7d4d	0.0019416005
239	0xbb1fc57a	-0.002437918
240	0x3bb47ae9	0.005507816
241	0xbbc853f1	-0.006113522
242	0x0101341f	2.3730953e-38
243	0xb5cdc685	-1.5331467e-06
244	0x8152c903	-3.8715127e-38
245	0xb5cdc685	-1.5331467e-06
246	0x3b88e01b	0.004177106
247	0xbbcbcdac	-0.0062195864
248	0x3ba96032	0.005168938
249	0xbbf241e6	-0.0073931096
250	0xbbca9969	-0.0061828387
251	0xb9ac7841	-0.00032895993
252	0xbbc64368	-0.006050516
253	0xbc3f20d5	-0.011665543
254	0xbb86a8d8	-0.004109483
255	0x3f27e976	0.6559061

net.0.bias f4 [128]
0	0xb5b5dd06	-1.3549877e-06
1	0x350da9a3	5.2773447e-07
2	0x3413650e	1.3727205e-07
3	0xb482f073	-2.4389337e-07
4	0x35452125	7.343645e-07
5	0x365c027d	3.2784003e-06
6	0x35984cd2	1.134724e-06
7	0x3636ce87	2.7240328e-06
8	0xb59df32e	-1.1768186e-06
9	0x350f2b4e	5.333467e-07
10	0x3617925d	2.2585948e-06
11	0x351cb270	5.837419e-07
12	0x3510818f	5.3832713e-07
13	0x35081545	5.06949e-07
14	0xb485b6d4	-2.4906205e-07
15	0x3512a08f	5.462288e-07
16	0x3647b29a	2.975727e-06
17	0x3724dd5b	9.8267e-06
18	0x3640e69b	2.874446e-06
19	0x358972eb	1.0240741e-06
20	0xb68b5881	-4.152826e-06
21	0xb70a32c9	-8.237265e-06
22	0x332642b2	3.8710546e-08
23	0x35c01749	1.4311892e-06
24	0xb5393b73	-6.900438e-07
25	0xb41135f8	-1.3523811e-07
26	0xb63ae6fa	-2.7850606e-06
27	0x35e4ac16	1.7037407e-06
28	0x35ae4968	1.2985374e-06
29	0x3412d0da	1.367329e-07
30	0x35b6dc46	1.3624165e-06
31	0xb4e35d72	-4.2350035e-07
32	0xb5ca86f5	-1.508945e-06
33	0xb5a1e299	-1.2061383e-06
34	0xb7063fc7	-8.001872e-06
35	0xb56c345a	-8.799303e-07
36	0x3537d462	6.848187e-07
37	0x34ee8ffa	4.443571e-07
38	0xb5e8b11b	-1.7336891e-06
39	0x3582ebca	9.754378e-07
40	0xb5097a10	-5.12141e-07
41	0x34a125ba	3.0016037e-07
42	0x35a92813	1.2603144e-06
43	0x34060da9	1.2484692e-07
44	0xb5281f1d	-6.263015e-07
45	0xb594d044	-1.1087473e-06
46	0xb440a456	-1.7941178e-07
47	0x351c5ac4	5.824661e-07
48	0xb563b8f5	-8.483324e-07
49	0xb60044aa	-1.9113454e-06
50	0x367de36d	3.7832317e-06
51	0xb5709c4f	-8.9634426e-07
52	0xb62037a1	-2.3874238e-06
53	0xb5d595a1	-1.5913284e-06
54	0xb57e5eef	-9.476052e-07
55	0xb550a05e	-7.7719403e-07
56	0xb5a9581a	-1.2617122e-06
57	0x346e6059	2.2200528e-07
58	0xb6070176	-2.0117418e-06
59	0x34bf3900	3.5617995e-07
60	0xb50cbb6e	-5.242681e-07
61	0xb50ebd24	-5.317436e-07
62	0x35eceacf	1.7651709e-06
63	0x34e73d83	4.307186e-07
64	0xb4ec171f	-4.3975248e-07
65	0x34e0f9cb	4.1905e-07
66	0xb70ec7c1	-8.510368e-06
67	0xb53cf35e	-7.0389603e-07
68	0x35700a89	8.94223e-07
69	0x3586671e	1.0013789e-06
70	0xb495e53b	-2.79202e-07
71	0xb521b6f9	-6.0243434e-07
72	0xb4eef608	-4.4509966e-07
73	0x34b052a6	3.284269e-07
74	0x36159642	2.2290192e-06
75	0x33a51ab8	7.688271e-08
76	0x33356730	4.2236195e-08
77	0xb48cadf6	-2.6203605e-07
78	0x32e660c6	2.6819531e-08
79	0xb449480d	-1.8745796e-07
80	0x355dcfcf	8.2631317e-07
81	0xb51e1016	-5.8882995e-07
82	0x34251290	1.5373575e-07
83	0xb51985c9	-5.7191625e-07
84	0x3588d41f	1.0194525e-06
85	0xb54b1997	-7.566063e-07
86	0x33fb0536	1.1689046e-07
87	0x35bc52d3	1.4031197e-06
88	0xb4be3f8c	-3.5436494e-07
89	0x34fef6ad	4.7490667e-07
90	0x35bc22f2	1.4017262e-06
91	0x355589c1	7.954914e-07
92	0xb46eb0b7	-2.2229766e-07
93	0xb530945c	-6.5781e-07
94	0x34b0cbdc	3.2930882e-07
95	0x34792e0c	2.3206684e-07
96	0xb1159980	-2.1769608e-09
97	0xb4ea76b2	-4.367226e-07
98	0x358ab5f2	1.0334754e-06
99	0xb5911176	-1.0808424e-06
100	0x34cdf636	3.8363368e-07
101	0xb6592438	-3.2356602e-06
102	0x356698f7	8.590427e-07
103	0xb54c63a7	-7.6140935e-07
104	0xb50ab087	-5.166589e-07
105	0x339193c7	6.778969e-08
106	0x3490d90d	2.6980015e-07
107	0x3427a20c	1.561204e-07
108	0x35425996	7.2400996e-07
109	0xb49cef43	-2.923135e-07
110	0x3505be1b	4.9823e-07
111	0xb5176cc7	-5.6410175e-07
112	0xb362b051	-5.2780084e-08
113	0x360afb5d	2.0709915e-06
114	0xb52749df	-6.2319845e-07
115	0xb53a12c3	-6.93177e-07
116	0x35558677	7.9544355e-07
117	0x35d38ce3	1.5761728e-06
118	0xb52df98b	-6.4810655e-07
119	0x3537185e	6.820827e-07
120	0xb10a8d88	-2.0162094e-09
121	0xb554322b	-7.904916e-07
122	0xb5e724f1	-1.7221593e-06
123	0xb568bf6e	-8.67053e-07
124	0x359418a3	1.103403e-06
125	0x348640ec	2.5006682e-07
126	0xb4e0ffe2	-4.190943e-07
127	0xb581653f	-9.640715e-07

net.1.weight f4 [128]
0	0x3f15816a	0.58400595
1	0x3e8a518b	0.27015337
2	0x3ea3168b	0.31853136
3	0x3f16931e	0.58818233
4	0x3f06cb63	0.52654094
5	0x3eec40ce	0.46143192
6	0x3eaa87ff	0.33306882
7	0x3f534824	0.8253195
8	0x3e45baa1	0.19309475
9	0x3e3bb86b	0.18332069
10	0x3ed2f4d1	0.41202405
11	0x3e4fddff	0.20299529
12	0x3e1ef7d4	0.15524226
13	0x3e9fbbaf	0.3119788
14	0x3ea667b7	0.32501003
15	0x3e76c2ed	0.24097796
16	0x3f39b12b	0.7253596
17	0x3f66af41	0.90111166
18	0x3edd9f5a	0.43285638
19	0x3eee761c	0.46574485
20	0x3f07ca34	0.5304291
21	0x3ff5e0d4	1.9209237
22	0x3ec0bb89	0.37643078
23	0x3ed02998	0.40656734
24	0x3df263c8	0.11835438
25	0x3e2a435c	0.16627258
26	0x3f00172f	0.50035375
27	0x3f1fe5b6	0.62459886
28	0x3e4c20e5	0.19934423
29	0x3e9c8daa	0.3057683
30	0x3f19c8a6	0.6007179
31	0x3edc472d	0.43023053
32	0x3f06723b	0.5251805
33	0x3e6f38c9	0.23361506
34	0x3f8fea25	1.124333
35	0x3efb9273	0.4913517
36	0x3eab9096	0.33508748
37	0x3e9f15dc	0.31071365
38	0x3f3adb22	0.7299062
39	0x3e95c8b6	0.29254693
40	0x3ee13386	0.43984622
41	0x3e8412e6	0.25795668
42	0x3eb679a8	0.3563969
43	0x3f5c8f45	0.8615611
44	0x3ef531cf	0.47889563
45	0x3ec0ba26	0.3764202
46	0x3e4e84aa	0.20167795
47	0x3ebb5faa	0.36596423
48	0x3e939452	0.28824097
49	0x3e9d64f1	0.30741075
50	0x3f1eb68f	0.6199731
51	0x3ee45352	0.44594818
52	0x3e685c9f	0.22691582
53	0x3eec8158	0.4619243
54	0x3f0f8154	0.56056714
55	0x3ee9a2d9	0.45632055
56	0x3e746d76	0.23869881
57	0x3f6dd314	0.92900205
58	0x3f237375	0.6384805
59	0x3f0d023b	0.5508153
60	0x3ef15a46	0.47139186
61	0x3ececbdc	0.40389907
62	0x3ec8b937	0.39203808
63	0x3ed41e95	0.41429582
64	0x3e8dcad0	0.27693796
65	0x3e50e710	0.20400643
66	0x40028733	2.039502
67	0x3f0f1b0f	0.55900663
68	0x3eaf1b09	0.34200314
69	0x3eda0634	0.42582858
70	0x3e696c7e	0.22795293
71	0x3d8af1a5	0.06784371
72	0x3e5ed4c9	0.21760859
73	0x3e0c3beb	0.13694732
74	0x3e9b8957	0.3037822
75	0x3eca18d8	0.3947208
76	0x3efc9bfc	0.49337757
77	0x3e4f168c	0.20223445
78	0x3ef6ca6b	0.48201308
79	0x3f164b88	0.58709
80	0x3e9bbf74	0.30419505
81	0x3e553528	0.20821059
82	0x3e86a963	0.26301107
83	0x3e600751	0.21877791
84	0x3e08679e	0.13320777
85	0x3e8ad353	0.27114353
86	0x3eadc8e0	0.33942318
87	0x3f0ccc5c	0.5499933
88	0x3ebdc0b4	0.37061083
89	0x3e41be28	0.18920195
90	0x3e2ae577	0.16689096
91	0x3ef34a2c	0.47517526
92	0x3e9cb7ee	0.30609077
93	0x3e09416c	0.13403863
94	0x3e0898f6	0.133396
95	0x3f5aa59a	0.8540894
96	0x3f58972e	0.8460568
97	0x3e18cbdd	0.14921518
98	0x3efc0fae	0.49230713
99	0x3efd9b09	0.49532345
100	0x3f2a065c	0.66415954
101	0x3ef26e08	0.47349572
102	0x3ed93540	0.4242344
103	0x3eb1047f	0.34573743
104	0x3e6ef57c	0.23335832
105	0x3f072659	0.5279289
106	0x3f1a63fb	0.6030881
107	0x3e88c94a	0.2671607
108	0x3e914cdc	0.28378952
109	0x3e2c561a	0.1682972
110	0x3e63d44b	0.22248952
111	0x3e2f5f59	0.17126216
112	0x3e74f966	0.23923263
113	0x3f0e490e	0.5558022
114	0x3ebe24c7	0.37137434
115	0x3eb26b49	0.34847477
116	0x3e05a4aa	0.13051096
117	0x3f222a7b	0.6334607
118	0x3f0de4c1	0.55427176
119	0x3e8294a2	0.25504023
120	0x3ed5ac6a	0.41733104
121	0x3e48435a	0.19556943
122	0x3ea2f963	0.31830892
123	0x3e8a5515	0.27018037
124	0x3ebdecf3	0.3709484
125	0x3ec9e2ce	0.3943085
126	0x3ef09e5c	0.4699582
127	0x3e91fc2c	0.28512704

net.1.bias f4 [128]
0	0xbf328617	-0.69735855
1	0xbd91305f	-0.07089304
2	0x3b53448a	0.0032236897
3	0xbeeeda72	-0.46651036
4	0xbf7ca6b6	-0.9869188
5	0xbce26e1d	-0.027640397
6	0xbed1e3cb	-0.40994105
7	0xbec0ad08	-0.37632012
8	0x3e0ed3b2	0.13947943
9	0x3e3f694e	0.18692514
10	0xbda67f39	-0.081297345
11	0xbd53e3f3	-0.05173106
12	0xbda8e97a	-0.08247657
13	0x3d0d196a	0.034448065
14	0xbe36a82d	-0.17837591
15	0xbc721aeb	-0.014776926
16	0xbf00fac5	-0.50382644
17	0xbf9dfe67	-1.2343262
18	0xbf0206fc	-0.5079191
19	0xbd7488f3	-0.059700917
20	0xbf2bf4e4	-0.6717055
21	0xbf8e29f6	-1.1106555
22	0xbcc1b8cb	-0.023647686
23	0xbdaac016	-0.08337419
24	0x3e540db5	0.20708354
25	0x3cc3af84	0.023887403
26	0xbe86424d	-0.26222458
27	0xbea7ee6d	-0.32799092
28	0x3d4c1fbc	0.04983495
29	0x3cc8c471	0.024507733
30	0xbee2fd02	-0.44333655
31	0xbe978f93	-0.29601726
32	0xbf20287d	-0.6256178
33	0xbe162a90	-0.14664674
34	0xbeed2d06	-0.46323413
35	0xbebf4f1c	-0.37365043
36	0x3e876a41	0.26448253
37	0xbe4bc682	-0.19899943
38	0xbec52154	-0.3850199
39	0xbe211247	-0.15729629
40	0xbee7d02b	-0.45276007
41	0xbe3211a3	-0.1738954
42	0xbe7d17e7	-0.2471615
43	0xbf46e165	-0.77687675
44	0xbe5f1ccf	-0.21788333
45	0xbed9771a	-0.4247368
46	0xbd1e7eb6	-0.03869506
47	0x3e25294d	0.16129036
48	0xbe61425e	-0.21997973
49	0x3e8f3073	0.2796665
50	0xbf520080	-0.8203201
51	0x3d808e35	0.06277124
52	0x3d3b25b9	0.045690272
53	0xbc3f777e	-0.011686204
54	0xbef3cd9e	-0.4761781
55	0xbe2e016e	-0.16992733
56	0xbeaad4a3	-0.33365354
57	0xbf146122	-0.5796071
58	0xbe2f4702	-0.17116931
59	0xbd722e9f	-0.059126493
60	0xbe5e448a	-0.21705833
61	0x3dc90cf5	0.098169245
62	0x3bcb418a	0.006202881
63	0xbebabb6e	-0.36471123
64	0xbd8919f8	-0.06694406
65	0x3e2d02cc	0.16895598
66	0xbf8b8689	-1.0900432
67	0xbea7bdcc	-0.3276199
68	0x3e38bcc8	0.18040764
69	0xbe802cb8	-0.25034118
70	0xbd90de0e	-0.070736036
71	0x3e232f2d	0.15935965
72	0x3dad29ef	0.08455264
73	0x3e8ec290	0.27882814
74	0xbd5e6fb9	-0.054305766
75	0xbdfa86b8	-0.12232727
76	0xbeae5336	-0.3404786
77	0x3dcb9459	0.099404044
78	0xbf020ce3	-0.50800914
79	0xbf196037	-0.5991244
80	0x3e11b6a2	0.14229825
81	0xbe22f3f7	-0.15913378
82	0xbda0cbde	-0.078513846
83	0x3b3b1e63	0.0028552047
84	0x3e3ed3da	0.18635502
85	0xbe82bb67	-0.25533602
86	0xbe8873ac	-0.2665075
87	0xbe0a5000	-0.1350708
88	0xbeaffc16	-0.34372014
89	0x3dd3e5c8	0.10346562
90	0x3dce7cc3	0.1008239
91	0xbdc85cd9	-0.09783334
92	0xbe0461d6	-0.12927946
93	0x3c3b280c	0.011423122
94	0x3e1d9a67	0.15390931
95	0xbf6fe255	-0.9370473
96	0xbecb4cef	-0.39707133
97	0x3d25d4b6	0.04048606
98	0xbeaf6751	-0.34258512
99	0x3d8ab71a	0.06773205
100	0xbeea43aa	-0.4575475
101	0xbda7eb6d	-0.08199201
102	0xbe961e3c	-0.29319942
103	0xbedec4d0	-0.4350953
104	0xbc8c57e8	-0.01713176
105	0xbd3c8d41	-0.046033148
106	0xbf13d771	-0.5775061
107	0xbe808b9a	-0.25106508
108	0x3d0203f2	0.031742044
109	0x3e209fe0	0.15685987
110	0x3e21311a	0.15741387
111	0x3e70caea	0.23514906
112	0xbe2771b0	-0.16351962
113	0xbe8ed48b	-0.27896532
114	0xbe6ca6ea	-0.23110548
115	0xbef53fb1	-0.47900155
116	0x3f00e204	0.5034487
117	0xbd233211	-0.03984267
118	0xbc5cfacd	-0.01348753
119	0xbe8669c3	-0.26252565
120	0x3e030f26	0.12798747
121	0xba5a9dbf	-0.0008339546
122	0xbd0f9f6c	-0.035064146
123	0x3e913b43	0.28365526
124	0xbea63813	-0.32464656
125	0xbe499028	-0.19683897
126	0xbe68581e	-0.22689864
127	0xbdfb77a0	-0.12278676

net.1.running_mean f4 [128]
0	0x3d045d7f	0.032315727
1	0x3bbe5aa6	0.005809146
2	0x3cbe571a	0.023234893
3	0xbced4976	-0.028965693
4	0xbc1a76fc	-0.009427782
5	0xbc2f538c	-0.0107010715
6	0xbc45193f	-0.012029945
7	0xbc1b541d	-0.009480503
8	0x396d8e99	0.00022655203
9	0x3bc04606	0.0058677224
10	0x3cee020b	0.029053709
11	0xbc4423e9	-0.011971452
12	0xbc4da3f3	-0.012551296
13	0xbc50bd2b	-0.012740414
14	0x3c8f951a	0.017527152
15	0x3c04800d	0.00808717
16	0x3a2a72cd	0.0006502092
17	0x3c14ad80	0.009074569
18	0x3b8934a7	0.004187185
19	0xbd01e712	-0.031714506
20	0x3c37a338	0.011208348
21	0x3cd03c52	0.025419388
22	0x3c0c0528	0.008546151
23	0x3c944924	0.018101282
24	0xbb3afbb4	-0.0028531374
25	0x3c4f1a85	0.0126406
26	0x3c0a3d39	0.008437448
27	0x3cbd3ab3	0.023099279
28	0x3a6d33f8	0.00090485765
29	0xbb392daf	-0.002825599
30	0x3c7cac70	0.015421972
31	0xbcbaeb88	-0.022817388
32	0xbb9d8f2d	-0.0048083276
33	0x3c1d6a49	0.00960786
34	0x3cf54e58	0.029944584
35	0x3d088370	0.033328474
36	0xbcc9a66b	-0.024615487
37	0x3c914ec1	0.017737748
38	0x3a57f393	0.00082378945
39	0x3ca71a40	0.02039826
40	0x3b7159a4	0.0036827112
41	0x3c8135a4	0.015772648
42	0xbc4dfd47	-0.012572593
43	0xbc3c8e35	-0.011508514
44	0x3c1d13c7	0.009587235
45	0xbd2dc03a	-0.04241965
46	0x3c78d6f1	0.015187965
47	0x3cbb8477	0.022890313
48	0xbc251851	-0.010076598
49	0x3c7216d3	0.0147759495
50	0x3bff733c	0.0077957194
51	0x3bbff183	0.005857648
52	0x3c2884b4	0.010285545
53	0x3be5db18	0.0070146434
54	0x3cae7a53	0.021298563
55	0x3d1be64d	0.03806143
56	0x3c4a3112	0.012340801
57	0x3c2b4d9d	0.010455516
58	0x3ce0ab37	0.027425392
59	0x3ca2161a	0.01978593
60	0x3d70f528	0.05882755
61	0x3c68ec7a	0.014216537
62	0xbbf97994	-0.00761337
63	0x3cc03b07	0.023465646
64	0xbc34aa80	-0.0110269785
65	0xbb5c033a	-0.003357126
66	0x3cf082b3	0.029359197
67	0x3d0a579f	0.03377497
68	0x3ade280e	0.0016949193
69	0x3c8b8fed	0.017036403
70	0x3c3efd7e	0.011657117
71	0xbbae880f	-0.005326278
72	0x3ced4743	0.028964644
73	0x3d47cc91	0.048779074
74	0xbc301cc7	-0.010749049
75	0xbbf1e774	-0.0073823277
76	0xbc8ebe4c	-0.017424725
77	0xbc4f4e26	-0.012652909
78	0xbc2c4413	-0.010514277
79	0x3b7a4094	0.0038185464
80	0x3bc71246	0.0060751764
81	0x3cdc2e8c	0.026877664
82	0xbccda658	-0.025103733
83	0x3c3bff24	0.0114744045
84	0xbba668b3	-0.005078399
85	0x383253c6	4.2516527e-05
86	0x3b0f021a	0.002182132
87	0xbd168d46	-0.036755823
88	0x3af78dea	0.0018886898
89	0x3c2c3e77	0.01051294
90	0xbced2055	-0.028946081
91	0x3d2e2079	0.042511437
92	0x3c9215e8	0.017832711
93	0x3cf2505c	0.029579334
94	0xbb67a7e5	-0.0035347876
95	0x3c9ea6f9	0.019366728
96	0x3c8e6479	0.017381893
97	0x3b128341	0.0022356065
98	0xbd37d431	-0.044880096
99	0x3c8da58d	0.017290855
100	0xbcab5638	-0.020915136
101	0xbbe0c459	-0.006859344
102	0xbd3b67a3	-0.045753133
103	0x3cd5c1df	0.026093422
104	0x39d90c1e	0.00041398493
105	0xbc500afb	-0.01269793
106	0x3d0841fa	0.033266045
107	0xbbe0e968	-0.0068637617
108	0xbc6ac718	-0.014329694
109	0x3c03b67e	0.008039115
110	0xbbfa7c66	-0.007644224
111	0x3ca44a88	0.02005507
112	0xbab86711	-0.0014068802
113	0x3d3adb70	0.04561943
114	0xbc9b3ba8	-0.018949345
115	0x3b204d80	0.0024460256
116	0xbc2fb322	-0.010723861
117	0xbc6f21ed	-0.014595491
118	0x3c90aeee	0.017661538
119	0xbc4fc65f	-0.012681573
120	0x3c8e9f09	0.017409818
121	0x3caa6366	0.02079935
122	0xbc53db82	-0.012930753
123	0xbc264822	-0.010149034
124	0x3b1808e6	0.0023198663
125	0x3d2210b5	0.039566714
126	0x3b4b829a	0.0031053186
127	0xbc3220ba	-0.01087206

net.1.running_var f4 [128]
0	0x400d3d93	2.2068832
1	0x3fa50d3f	1.2894667
2	0x3f8d3835	1.1032778
3	0x404985d8	3.1487942
4	0x4036575b	2.8490818
5	0x40367f09	2.8515036
6	0x3e8a1fc5	0.26977363
7	0x3fd0fd12	1.6327231
8	0x3f4e023f	0.8047218
9	0x3f65ca85	0.89762145
10	0x4014e188	2.3262653
11	0x401740d8	2.3633327
12	0x3f8ac145	1.0840231
13	0x3fd9b080	1.7006989
14	0x3fad7019	1.3549834
15	0x3fbf7f4f	1.4960726
16	0x3e58b167	0.21161424
17	0x3f808a48	1.00422
18	0x4013d0ac	2.3096113
19	0x403b9bd5	2.9313862
20	0x3ff75d63	1.9325374
21	0x40eb6fe8	7.3574104
22	0x3f77e321	0.96830946
23	0x40440fec	3.0634718
24	0x3f945c22	1.1590617
25	0x3fa7b331	1.310156
26	0x406b7812	3.6792035
27	0x4081c17e	4.0548697
28	0x3ef911bb	0.4864634
29	0x3fb9f74c	1.4528594
30	0x405a63f5	3.412351
31	0x4003bdd4	2.0584612
32	0x401e9bb8	2.4782543
33	0x3f0573f5	0.5213006
34	0x40a7dd49	5.2457623
35	0x3fbdfe8c	1.4843307
36	0x40108f8e	2.258762
37	0x3fea8417	1.8321561
38	0x405e44b8	3.4729443
39	0x3fe7675c	1.8078418
40	0x4004c20e	2.0743442
41	0x3fec223f	1.8447951
42	0x402de861	2.7173083
43	0x40804ac4	4.0091267
44	0x401f62ec	2.4904127
45	0x40149b44	2.3219767
46	0x3f321c20	0.69574165
47	0x40388238	2.882948
48	0x4025f564	2.5931025
49	0x408445b5	4.133509
50	0x3f5c00e9	0.8593889
51	0x405357cc	3.3022337
52	0x3f56c43b	0.83893174
53	0x40148de1	2.3211596
54	0x401d6898	2.459509
55	0x3fe3d141	1.7798234
56	0x3f1bf0dd	0.60914403
57	0x404fb05e	3.2451396
58	0x4061a3d7	3.525625
59	0x404ab263	3.1671379
60	0x4093c079	4.617245
61	0x400b68c4	2.1782694
62	0x407cb4a9	3.9485266
63	0x405224a5	3.2834866
64	0x3f95383b	1.1657785
65	0x3f5f8932	0.8731872
66	0x4117a8f0	9.4787445
67	0x403931c4	2.8936625
68	0x400b48b0	2.1763115
69	0x400e324c	2.2218199
70	0x3f4c5f85	0.7983325
71	0x3f347a73	0.7049934
72	0x3f8e9af4	1.1141038
73	0x3fc97e65	1.5741698
74	0x3ff7e35d	1.9366261
75	0x403a6c94	2.912877
76	0x4043c3f7	3.0588357
77	0x3f91ba8c	1.1385055
78	0x402fef10	2.7489662
79	0x40209d34	2.509595
80	0x4042e793	3.0453842
81	0x3f6503c4	0.8945887
82	0x3f946ea3	1.1596264
83	0x3f9e3c12	1.2362082
84	0x3f7d19f4	0.98867726
85	0x3f99d76d	1.2018868
86	0x40237172	2.5537992
87	0x40b64bf8	5.6967735
88	0x3fc9c65f	1.5763663
89	0x3fdee9cd	1.74151
90	0x400d86e4	2.211358
91	0x402795a4	2.6185083
92	0x3f658105	0.89649993
93	0x3f209ed9	0.6274238
94	0x3eed5bbd	0.46359053
95	0x40a60350	5.1879044
96	0x40cb772c	6.3582973
97	0x3f7bd137	0.9836611
98	0x40322ce1	2.7839892
99	0x405c9bb0	3.4470024
100	0x40879e30	4.23806
101	0x400fb5b6	2.2454658
102	0x3fd1bfe3	1.6386684
103	0x3fcca7f4	1.5988755
104	0x3f7f6a74	0.9977181
105	0x40136640	2.3031158
106	0x40a5930f	5.1742015
107	0x3f854eb0	1.0414639
108	0x3fa99aee	1.3250406
109	0x3f88c943	1.068642
110	0x3fe2867b	1.769729
111	0x3fe173e0	1.7613487
112	0x3f1fbd27	0.62398
113	0x40840a92	4.1262903
114	0x40058ccf	2.0867193
115	0x3fd1b9d5	1.6384836
116	0x3fbb1c72	1.4618056
117	0x400f6e0d	2.241092
118	0x403e3276	2.97183
119	0x3f6260f3	0.8842918
120	0x40ae8f76	5.4550123
121	0x3f8a122a	1.0786793
122	0x4033c958	2.809164
123	0x4005d250	2.0909615
124	0x4031285d	2.7680886
125	0x4016f4f2	2.3587003
126	0x40022538	2.0335217
127	0x400666b8	2.1000195

net.3.weight f4 [128, 128]
0	0x3ba0192e	0.004885814
1	0x3c6d89e4	0.014498208
2	0x3ce27bfe	0.027647015
3	0xbc7710d2	-0.015079694
4	0xbded512e	-0.115877494
5	0xbe93f63e	-0.28898805
6	0xbc01bfea	-0.007919291
7	0xbca658f6	-0.020306092
8	0x3e019a3f	0.12656496
9	0x3e22ce1e	0.1589894
10	0xbe79577e	-0.24349782
11	0xbc3bf934	-0.011472989
12	0xbb01cbe3	-0.0019805364
13	0xbcbfb43e	-0.023401376
14	0x3bff0595	0.007782648
15	0xbcf78cf0	-0.030218571
16	0xbe041f06	-0.1290246
17	0xbcd3b1ba	-0.025841583
18	0xbc49167d	-0.012273428
19	0xbee6e098	-0.45093226
20	0xbcbbcb46	-0.022924077
21	0xbd541d2c	-0.051785633
22	0xbcf755ae	-0.030192222
23	0x3d064fa9	0.032790814
24	0x3b17d7f5	0.0023169492
25	0x3d052245	0.032503385
26	0x3d1a034c	0.0376008
27	0xbd220e44	-0.039564386
28	0x3c6abda4	0.01432744
29	0xbb43b0b8	-0.0029859971
30	0xbce989b2	-0.028508041
31	0xbd64840b	-0.05578999
32	0x3bc863fe	0.0061154356
33	0xbae8650d	-0.0017730311
34	0xbda00259	-0.07812948
35	0xbd809a31	-0.0627941
36	0x3db30085	0.087403335
37	0xbd0f269a	-0.034948923
38	0x3f04663d	0.51718503
39	0xbb27b4c4	-0.0025589922
40	0x3c4705ed	0.012147409
41	0xbd814688	-0.06312281
42	0xbba11380	-0.0049156547
43	0xbd1acfd9	-0.037795875
44	0x3de01294	0.109410435
45	0xbe70f801	-0.23532106
46	0xbe2a422b	-0.16626804
47	0xbe6e67c5	-0.23281772
48	0xbb20fce3	-0.0024564795
49	0x3d118d1e	0.03553497
50	0x3b758e42	0.0037468825
51	0x3d91c8a5	0.07118348
52	0xbd42acdf	-0.047528144
53	0x3cc37865	0.02386112
54	0xbc257f84	-0.010101203
55	0x3ebf3875	0.3734776
56	0x3afa6a85	0.0019105232
57	0x3de84fcc	0.11343345
58	0xbf556851	-0.833623
59	0xbcb5c091	-0.02218655
60	0x3e447cc2	0.19188216
61	0x3d0a4e9d	0.033766378
62	0x3ce61e4d	0.02809062
63	0x3d272ac4	0.04081227
64	0xbd907890	-0.070542455
65	0xbdbb1891	-0.09135545
66	0x3dd25ca6	0.102715775
67	0xbbd884b1	-0.006607615
68	0xbe04a46e	-0.1295335
69	0x3e5c40ca	0.2150909
70	0xbd14b218	-0.036302656
71	0x3bdcd0b3	0.006738746
72	0x3d89f367	0.067358784
73	0x3d1d35d6	0.03838142
74	0xbe23c3d6	-0.15992674
75	0x3b98864c	0.0046546813
76	0x3d083e24	0.033262387
77	0x3d314dfa	0.043287255
78	0x3baae432	0.0052151913
79	0x3c284e4b	0.010272573
80	0xbbd97359	-0.006636065
81	0x3d8fd134	0.07022324
82	0xbdf290e6	-0.118440434
83	0x3d3cc810	0.046089232
84	0xbd99c81f	-0.07508873
85	0xbe257a9c	-0.16160053
86	0x3c8e5bab	0.017377695
87	0x3bf07982	0.0073387036
88	0x3ca9b45f	0.02071589
89	0xbdbd99cc	-0.0925785
90	0xbd7969ff	-0.0608921
91	0x3c63467c	0.013871785
92	0xbee4de52	-0.44700867
93	0xbcbe4c0d	-0.023229623
94	0x3d60d882	0.054893978
95	0x3c70355d	0.01466116
96	0xbd67e99f	-0.056619283
97	0x3b9ff3d5	0.004881362
98	0x3e1478fe	0.1449928
99	0xbc692a5e	-0.0142312925
100	0x3d56ace4	0.052410975
101	0xbee62039	-0.4494646
102	0xbdaff802	-0.085922256
103	0x3ddb62ff	0.107122414
104	0x3ac27a66	0.0014837503
105	0x3db0f69e	0.086407885
106	0xbd91f3f7	-0.07126611
107	0x3d225070	0.039627492
108	0x3d98c98b	0.07460316
109	0xbe118b1e	-0.14213225
110	0x3e11e200	0.14246368
111	0x3d6ccad9	0.057810638
112	0xbcad8244	-0.02118028
113	0xbdcc45fd	-0.09974287
114	0x3d978da9	0.074000664
115	0xbd23ecf2	-0.04002089
116	0xbdcf6e98	-0.10128516
117	0xbc467eda	-0.012115205
118	0xbd6cdd18	-0.05782804
119	0x3db69651	0.08915389
120	0x3b44b786	0.0030016615
121	0x3d2fc779	0.04291484
122	0xbcb080f7	-0.02154587
123	0x3e93ec46	0.288912
124	0xbd80caf6	-0.06288712
125	0xbd725459	-0.05916247
126	0xbc33ec10	-0.010981575
127	0xbdc07edb	-0.09399196
128	0xbbec5097	-0.0072117555
129	0xbbac78fc	-0.005263446
130	0xbcd5110f	-0.02600911
131	0xbb626ce8	-0.0034549776
132	0xbbebbe1e	-0.0071942946
133	0x3d066f9d	0.032821286
134	0x3cd07a04	0.025448807
135	0x3c988f0c	0.018622898
136	0xbd84a302	-0.06476404
137	0xbc3e96be	-0.011632619
138	0xbc1aaf08	-0.009441145
139	0xbc48305d	-0.012218562
140	0xbbd1e871	-0.006405883
141	0x3e6ec99d	0.23319097
142	0xbc48c3f7	-0.012253753
143	0xbcdce150	-0.026962906
144	0x3ba3faf8	0.005004283
145	0x3d04f3c4	0.032459036
146	0xbc0fb855	-0.0087719755
147	0x3b71e7e6	0.0036911904
148	0xbb3b176a	-0.0028547891
149	0x3d7f0c47	0.062267568
150	0xbbb1b722	-0.0054234425
151	0xbaed5897	-0.0018108067
152	0x3de13c3c	0.10997817
153	0x3d141ae9	0.036158476
154	0x3c77197f	0.015081762
155	0x3d5fb15d	0.054612506
156	0xbdfad285	-0.12247185
157	0xbda72d52	-0.08162941
158	0xbb09e76d	-0.0021042482
159	0x3d13b3f3	0.036060285
160	0xbc506db4	-0.012721468
161	0xbbd04fe0	-0.006357178
162	0x3cb6ce90	0.022315294
163	0xbce52c79	-0.027975308
164	0xbd1b2659	-0.037878368
165	0xbc588180	-0.013214469
166	0x3c8aad9a	0.016928483
167	0xbc822dcf	-0.015890984
168	0x3c5ac2bc	0.013352092
169	0xbd5cafdd	-0.053878654
170	0xbd0cdb2c	-0.034388706
171	0x3c4fea1b	0.012690092
172	0xbd0773e4	-0.033069506
173	0x3cafbd8b	0.021452686
174	0xbc0d46a4	-0.008622799
175	0xbd1b2e10	-0.037885725
176	0x3aa65195	0.0012689108
177	0x3df96b68	0.12178689
178	0x3b3e22b0	0.0029012375
179	0xbc548312	-0.012970703
180	0x3c5e2c53	0.013560372
181	0x3b1cc663	0.0023921959
182	0x3c1b175e	0.00946602
183	0xbcdb39b5	-0.026760915
184	0xbcdf5bbc	-0.027265422
185	0xbd9b486d	-0.075821735
186	0x3b267b39	0.0025403036
187	0xbd1c237e	-0.038119785
188	0xbc039694	-0.008031506
189	0x3c6d3a6f	0.014479264
190	0xbd84f0c9	-0.064912386
191	0xbd98fb58	-0.07469815
192	0xbe0ba659	-0.13637675
193	0xbd6ec7b1	-0.05829591
194	0xbd00b2ec	-0.031420633
195	0x3c3bba7c	0.011458036
196	0xbca8d25a	-0.020608116
197	0x3c291077	0.010318867
198	0xbcdcdd40	-0.026960969
199	0x3c8b7bdf	0.01702684
200	0x3cab0461	0.020876111
201	0x3d5eb0f5	0.054367978
202	0xbc18ce28	-0.009326495
203	0x3e0314bd	0.1280088
204	0x3c4d5cc7	0.012534327
205	0xbc280496	-0.010255
206	0xbd20b4ac	-0.039234802
207	0xbc5cd401	-0.01347828
208	0xbe3f461b	-0.18679087
209	0x3bfb99fe	0.0076782694
210	0x3c58cbae	0.013232155
211	0xbbe06129	-0.00684752
212	0xbd426048	-0.047455102
213	0x3ad63ddb	0.0016345339
214	0xbb4669da	-0.0030275495
215	0xbbb66977	-0.0055667716
216	0x3c751c64	0.014960382
217	0xbbe51619	-0.0069911596
218	0x3cd1574f	0.025554327
219	0x3d20730c	0.039172217
220	0xbbd07e3b	-0.006362704
221	0x3d0e1e1a	0.034696676
222	0x3d32897b	0.043588143
223	0xbd174eef	-0.03694051
224	0xbd285a25	-0.041101594
225	0xbdc6b592	-0.097026005
226	0x3bf0e11c	0.007351054
227	0xbb44c483	-0.0030024357
228	0x3bb47cde	0.0055080494
229	0xbc0e7b62	-0.008696409
230	0x3d27b9b2	0.040948577
231	0x3ca450ca	0.020058054
232	0x3d2df80b	0.04247288
233	0x3bacfafa	0.005278942
234	0x3d981ff3	0.07427969
235	0xbc7624bb	-0.015023406
236	0x3c8c676e	0.017139163
237	0x3c78041e	0.0151377
238	0xbca31801	-0.019908907
239	0xbd572041	-0.052520994
240	0xbb52af45	-0.0032147926
241	0x3d1f6417	0.038913812
242	0x3bfa5993	0.0076400726
243	0x3c78820f	0.015167727
244	0x3e0bd94c	0.13657111
245	0x3d463011	0.048385683
246	0xbb4b271a	-0.0030998648
247	0x3d038687	0.032110717
248	0xbf921a80	-1.1414337
249	0xbc260195	-0.010132213
250	0x3cbf35ce	0.023341086
251	0xbd70b06e	-0.058762006
252	0x3d80c7e7	0.06288128
253	0x3bc250d2	0.0059300447
254	0xbce3a380	-0.027787924
255	0xbb5980c6	-0.0033188327

net.3.bias f4 [128]
0	0xb69bb155	-4.640004e-06
1	0xb611225c	-2.1626684e-06
2	0x36de6ab6	6.6285384e-06
3	0xb50b37c1	-5.186267e-07
4	0xb6cb0357	-6.0502603e-06
5	0x35be0d59	1.4159988e-06
6	0xb70359b9	-7.829099e-06
7	0xb53e04a8	-7.078729e-07
8	0x374965cb	1.2004234e-05
9	0xb6ef43e5	-7.130659e-06
10	0x37024988	7.765724e-06
11	0x35c1c51c	1.4436987e-06
12	0x35b9423a	1.3802849e-06
13	0xb6305b60	-2.627923e-06
14	0x34eb552a	4.3834126e-07
15	0xb75a9b0a	-1.302991e-05
16	0x359ae5ff	1.1540832e-06
17	0x3583e443	9.826693e-07
18	0xb69e7726	-4.7226376e-06
19	0x3685447e	3.9716824e-06
20	0x37081e6d	8.113316e-06
21	0x379f3494	1.897876e-05
22	0x3645ff65	2.9503947e-06
23	0xb5fed4b8	-1.8986384e-06
24	0xb569dc90	-8.7120225e-07
25	0xb553d190	-7.890858e-07
26	0xb6f3b3c6	-7.2628927e-06
27	0xb5f81f03	-1.8486465e-06
28	0xb5d1eb9f	-1.5640288e-06
29	0x36815aa7	3.855053e-06
30	0x370bedf5	8.340449e-06
31	0xb6569dd6	-3.1980358e-06
32	0xb68efa0e	-4.26104e-06
33	0x36977a11	4.514361e-06
34	0x35931d23	1.0960833e-06
35	0xb5008876	-4.788229e-07
36	0xb73c6236	-1.122854e-05
37	0x35879c8f	1.0103848e-06
38	0xb715a7b7	-8.920141e-06
39	0xb5c12968	-1.4391671e-06
40	0xb74f9d07	-1.2374722e-05
41	0xb5f92958	-1.8563978e-06
42	0xb5b44685	-1.3431569e-06
43	0x3565bb58	8.558177e-07
44	0x37ea3344	2.7918846e-05
45	0x37489e34	1.19577635e-05
46	0x3682cf6c	3.898449e-06
47	0x378c4cea	1.6725116e-05
48	0xb6f2ef94	-7.2400526e-06
49	0x36d55cc3	6.3586936e-06
50	0xb61f8850	-2.377219e-06
51	0xb690db19	-4.3170407e-06
52	0x36c5fd95	5.9005783e-06
53	0x370d5eb9	8.426309e-06
54	0x36f841a6	7.3986184e-06
55	0xb5469078	-7.397098e-07
56	0x373c333b	1.1217601e-05
57	0xb674607b	-3.6414992e-06
58	0xb6c1ed88	-5.7795005e-06
59	0x36ea4be3	6.982578e-06
60	0xb63caa26	-2.8113222e-06
61	0xb7121277	-8.706577e-06
62	0xb6062860	-1.9991057e-06
63	0x372f3c1f	1.0444811e-05
64	0xb610bae0	-2.1566448e-06
65	0xb60954d5	-2.046397e-06
66	0xb750ef63	-1.2453503e-05
67	0x36c0343f	5.728128e-06
68	0x37193f87	9.134302e-06
69	0xb6ab1685	-5.0988187e-06
70	0x34aa4a36	3.1718963e-07
71	0x3660191c	3.3393217e-06
72	0xb6d905b5	-6.4677683e-06
73	0xb72d14ac	-1.0316417e-05
74	0xb6665d36	-3.4326927e-06
75	0xb6b17ea4	-5.289754e-06
76	0x35734336	9.062236e-07
77	0xb7032d9e	-7.8188295e-06
78	0xb69fd3ec	-4.76324e-06
79	0x3671a74d	3.600918e-06
80	0x3684716e	3.9471115e-06
81	0xb61b48e6	-2.3139232e-06
82	0xb772bf3e	-1.4468851e-05
83	0x36bc814c	5.6178887e-06
84	0x3723de9f	9.76739e-06
85	0x3624baa0	2.4546534e-06
86	0x36e37f4a	6.7799456e-06
87	0xb700d2a8	-7.678442e-06
88	0xb7429589	-1.1598117e-05
89	0x35f79415	1.8446032e-06
90	0x3734ceb4	1.0776963e-05
91	0x37780a3b	1.4784334e-05
92	0xb686f02e	-4.021472e-06
93	0x3558de8c	8.079012e-07
94	0x3682d266	3.8987955e-06
95	0x3710f285	8.639535e-06
96	0x35a105b8	1.1997099e-06
97	0xb7140037	-8.821537e-06
98	0xb6f02491	-7.1568143e-06
99	0xb6c674be	-5.9144504e-06
100	0x37cb4b58	2.423457e-05
101	0xb5e4bd5f	-1.7042438e-06
102	0x364dd046	3.0668612e-06
103	0x36845272	3.9435045e-06
104	0x366f1fbd	3.563225e-06
105	0x371b7b26	9.267393e-06
106	0x37a3b07e	1.95133e-05
107	0xb745f843	-1.1799918e-05
108	0x360c709a	2.0927168e-06
109	0xb6550f3e	-3.1748345e-06
110	0x371acd20	9.226875e-06
111	0x3725caba	9.881967e-06
112	0x375bc006	1.3098126e-05
113	0xb68620b4	-3.9973183e-06
114	0xb40c3233	-1.3056778e-07
115	0xb68f0925	-4.2627967e-06
116	0xb6c5053c	-5.871667e-06
117	0xb50a9510	-5.162592e-07
118	0xb5d2b361	-1.5698425e-06
119	0x332ed7f2	4.0708933e-08
120	0x364fef58	3.098472e-06
121	0xb6e08c06	-6.692021e-06
122	0x370e5907	8.484588e-06
123	0xb699a626	-4.5790975e-06
124	0x37a06e38	1.9124811e-05
125	0xb6b35173	-5.3440976e-06
126	0x3611cc3b	2.1725562e-06
127	0xb7756890	-1.4627483e-05

net.4.weight f4 [128]
0	0x3f2893f1	0.6585074
1	0x3f46ca50	0.77652454
2	0x3f4e49b4	0.8058121
3	0x3f1e1dff	0.6176452
4	0x3f309d96	0.6899046
5	0x3e97380f	0.29534957
6	0x3f053845	0.52038985
7	0x3f1bf772	0.60924447
8	0x3f1ed258	0.6203971
9	0x3ec29000	0.38000488
10	0x3f1d8070	0.61524105
11	0x3f3541fc	0.7080381
12	0x3f4fe3ec	0.81207156
13	0x3f006cce	0.5016602
14	0x3f501190	0.812768
15	0x3f05dbbe	0.52288425
16	0x3f0a3195	0.53981906
17	0x3f068621	0.52548414
18	0x3f1495e3	0.5804121
19	0x3f3e1994	0.7425778
20	0x3f4ba31d	0.79545766
21	0x3f5d949c	0.86554885
22	0x3eec126c	0.46107805
23	0x3e639f42	0.22228721
24	0x3eb7d633	0.3590561
25	0x3ea7d825	0.32782093
26	0x3f214646	0.62997854
27	0x3ee6f4d6	0.4510867
28	0x3f055629	0.52084595
29	0x3ee75965	0.4518539
30	0x3e96ebf9	0.29476908
31	0x3f366bdb	0.71258324
32	0x3f175828	0.5911889
33	0x3eca4726	0.39507407
34	0x3f1da3bc	0.61577964
35	0x3f741e3e	0.95358646
36	0x3f2c1363	0.6721708
37	0x3f204f01	0.6262055
38	0x3f88a1e8	1.067441
39	0x3eed79bc	0.46381938
40	0x3f62098a	0.88295805
41	0x3f0face0	0.5612316
42	0x3f30d8de	0.69080913
43	0x3f23a048	0.63916445
44	0x3f69a53d	0.9126776
45	0x3efdbca9	0.49558
46	0x3edab83f	0.42718694
47	0x3e64ddb7	0.22350203
48	0x3e8dba82	0.27681357
49	0x3eed2ca3	0.46323118
50	0x3f2e8968	0.68178415
51	0x3e9e5726	0.30925864
52	0x3e3f289a	0.18667832
53	0x3eca3c86	0.394993
54	0x3f2f3e50	0.68454456
55	0x3ec303b6	0.3808877
56	0x3e823b81	0.25436023
57	0x3f1863af	0.59527105
58	0x3ec7af3f	0.3900089
59	0x3eb82ac3	0.35970125
60	0x3ec0b84d	0.3764061
61	0x3ef95653	0.48698673
62	0x3f1462fd	0.57963544
63	0x3f487753	0.78307074
64	0x3ef3f4f1	0.47647813
65	0x3f130a50	0.5743761
66	0x3f0ff49d	0.56232625
67	0x3f13fbf2	0.57806313
68	0x3f0631e1	0.5241986
69	0x3ef98aa8	0.487386
70	0x3ee40463	0.44534597
71	0x3eb23620	0.3480692
72	0x3f0acd68	0.54219675
73	0x3eea0ac0	0.45711327
74	0x3e999a4b	0.3000053
75	0x3eb5a25e	0.3547544
76	0x3f37137d	0.7151411
77	0x3ecbe662	0.39824206
78	0x3ea6114f	0.3243508
79	0x3eb164c0	0.3464718
80	0x3e8fc45a	0.28079492
81	0x3f229804	0.6351321
82	0x3f9a2323	1.2041973
83	0x3e9d0866	0.3067047
84	0x3ee52805	0.44757095
85	0x3ecfedad	0.4061102
86	0x3f3eeaf3	0.74577254
87	0x3f7a060b	0.9766547
88	0x3f54d304	0.83134484
89	0x3ecaab7a	0.3958395
90	0x3ee84639	0.45366076
91	0x3f0bbbbf	0.5458335
92	0x3f0edca4	0.5580542
93	0x3ed0e05e	0.4079618
94	0x3f6864ee	0.90779006
95	0x3f850c7c	1.0394435
96	0x3e801276	0.25014085
97	0x3ed1131c	0.40834892
98	0x3ec194eb	0.37808928
99	0x3f253c1d	0.6454485
100	0x3ee791b4	0.4522835
101	0x3f003f09	0.50096184
102	0x3f529a51	0.8226672
103	0x3f0631b3	0.52419585
104	0x3ec4bc60	0.3842497
105	0x3ef808fc	0.48444355
106	0x3f07746c	0.5291202
107	0x3ed28000	0.4111328
108	0x3ea0e032	0.31421047
109	0x3ee8889e	0.4541673
110	0x3f095708	0.53648424
111	0x3f0f556a	0.55989707
112	0x3f751649	0.9573713
113	0x3eb5ff43	0.35546312
114	0x3e8d7e6c	0.27635515
115	0x3f12f77c	0.5740888
116	0x3f240030	0.64062786
117	0x3ef980e3	0.48731145
118	0x3f7e187f	0.9925613
119	0x3f16aba7	0.5885567
120	0x3f0bb460	0.54572105
121	0x3f6cb697	0.9246611
122	0x3ecd1864	0.4005767
123	0x3f74b4c5	0.9558833
124	0x3f5e5d1e	0.86860836
125	0x3f384d1b	0.71992654
126	0x3ec5b9b0	0.3861823
127	0x3f847aa0	1.0349922

net.4.bias f4 [128]
0	0xbefe1156	-0.496226
1	0x3e1fb0e0	0.15594816
2	0x3e91267a	0.28349668
3	0xbeb0287d	-0.3440589
4	0xbfbc5a05	-1.4714972
5	0x3d7150a1	0.058914784
6	0xbeaadd41	-0.33371928
7	0xbd0919e3	-0.033471953
8	0xbf64f765	-0.89439994
9	0x3da4b419	0.080421634
10	0xbf9f63cd	-1.2452332
11	0xbf285f45	-0.6577037
12	0xbf91a47a	-1.1378319
13	0xbd2c4403	-0.04205705
14	0xbeb88c8d	-0.36044732
15	0xbee06e4e	-0.43834156
16	0xbcb7bd66	-0.02242918
17	0xbe1b2e84	-0.15154463
18	0x3d2fd2cd	0.042925645
19	0xbf5f5170	-0.8723364
20	0x3ea03fc7	0.31298658
21	0xbf82c43d	-1.0216137
22	0x3cfe150f	0.0310159
23	0x3d871020	0.065948725
24	0x3d45cad9	0.048289154
25	0x3d36ed74	0.044660047
26	0xbf19719a	-0.5993897
27	0x3ba56d1d	0.0050484077
28	0x3b371107	0.0027933733
29	0xbe332ec5	-0.1749831
30	0x3d08b204	0.033372894
31	0xbf1ec2c7	-0.62015957
32	0xbe64499e	-0.22293708
33	0x3d5947ad	0.05304687
34	0xbf3931de	-0.72341716
35	0xbf230d5a	-0.6369225
36	0xbea74944	-0.32673085
37	0xbe0a1c01	-0.13487245
38	0xbea6d84a	-0.3258689
39	0x3e7ffabc	0.24997991
40	0x3ed7cb3f	0.42147252
41	0x3d6c0f76	0.057631932
42	0xbf87bce7	-1.0604523
43	0xbf03422b	-0.5127284
44	0xbfb00c46	-1.3753746
45	0x3d4ec8c2	0.050484426
46	0xbe5fe7d2	-0.21865776
47	0x3df37a7a	0.11888595
48	0xbd590aa5	-0.052988667
49	0xbe4c9712	-0.19979504
50	0xbf22dbef	-0.6361684
51	0xbe16720e	-0.14691946
52	0x3e865fba	0.2624491
53	0x3ea7d0b9	0.3277643
54	0xbf361186	-0.7112049
55	0x3e89e09e	0.26929182
56	0x3e16bdd6	0.14720854
57	0xbed9679c	-0.4246186
58	0x3d7bfbe4	0.06151952
59	0x3d4c36b9	0.049856875
60	0x3c85f2ee	0.01635119
61	0xbe69b62c	-0.228234
62	0xbec5ea3d	-0.38655272
63	0xbf5dae64	-0.86594224
64	0xbe226228	-0.15857756
65	0xbec7f825	-0.39056507
66	0xbe86551f	-0.26236817
67	0xbf1a9411	-0.6038218
68	0x3e39c730	0.1814239
69	0xbf1fdf3e	-0.62450016
70	0xbeb9c6e7	-0.36284563
71	0x3db08c38	0.086204946
72	0xbeae817e	-0.3408317
73	0xbe461f6b	-0.19347923
74	0x3db51c83	0.08843329
75	0x3d9ad969	0.07560999
76	0xbea6afb9	-0.3255594
77	0xbf1b3cd1	-0.60639673
78	0x3e0d260d	0.13784046
79	0x3e7f8417	0.24952732
80	0x3e055ab9	0.13022889
81	0xbe1f8cd3	-0.15581064
82	0xbf598f0a	-0.84983885
83	0xbe556e85	-0.20842941
84	0xbdcca3da	-0.0999219
85	0xbe8ce8f4	-0.2752148
86	0xbee3424d	-0.4438652
87	0xbfa8967e	-1.3170927
88	0xbf098ffd	-0.53735334
89	0x3e8d6379	0.27614954
90	0xbf24018b	-0.64064854
91	0xbe527228	-0.2055136
92	0x3e015727	0.12630902
93	0xbe2316d7	-0.15926681
94	0xbf8f51ae	-1.1196802
95	0xbd323183	-0.04350425
96	0x3e211fcd	0.15734787
97	0x3e4eabb3	0.20182686
98	0x3e8dbd5f	0.2768354
99	0xbf28b8a7	-0.6590676
100	0x3e6cbc75	0.23118766
101	0xbe9f1a78	-0.31074882
102	0xbf043114	-0.5163739
103	0xbf3e1a27	-0.74258655
104	0xbe76e7b0	-0.2411182
105	0x3ebfbaf6	0.37447327
106	0x3cb5bfb1	0.022186132
107	0xbecbc7af	-0.39800784
108	0x3cd093f6	0.025461178
109	0x3eafa043	0.34301957
110	0xbea1dc67	-0.31613466
111	0xbeefa105	-0.46802536
112	0xbf0b32dd	-0.54374486
113	0x3d493615	0.049123842
114	0x3c622dd4	0.013804872
115	0x3d8014c8	0.06253964
116	0xbe8624c2	-0.2619992
117	0xbbd132ba	-0.006384221
118	0xbf6ec64e	-0.9327134
119	0xbe33849d	-0.17531057
120	0xbeeeb53e	-0.46622652
121	0xbf322953	-0.69594306
122	0xbecb4819	-0.39703444
123	0xbec35d14	-0.3815695
124	0xbfd22292	-1.64168
125	0xbdd28bbe	-0.1028056
126	0xbe304176	-0.17212471
127	0xbf512a45	-0.81705123

net.4.running_mean f4 [128]
0	0xbe67c709	-0.2263452
1	0xbe75e2a8	-0.24012244
2	0xbd76ec37	-0.060283866
3	0xbdb68b5b	-0.08913299
4	0xbe392382	-0.18079951
5	0xbf02eee0	-0.51145744
6	0xbe052fe5	-0.13006552
7	0x3e800d3c	0.25010097
8	0xbe2ad151	-0.1668141
9	0xba962219	-0.0011454254
10	0x3db6a4ef	0.08918177
11	0xbebd97b0	-0.3702979
12	0xbf36bb14	-0.7137921
13	0x3d46f169	0.04857007
14	0x3dd7bc09	0.10533912
15	0xbf121b14	-0.5707257
16	0x3e5cf022	0.21575978
17	0x3d0bf0dc	0.03416525
18	0xbd91c677	-0.07117932
19	0xbe71f7a6	-0.23629627
20	0x3ede1886	0.43378085
21	0xbea90144	-0.33008778
22	0xbcb62bd6	-0.0222377
23	0x3e3fd052	0.18731812
24	0xbd0c65ce	-0.034276776
25	0x3e52c753	0.20583849
26	0xbe1adae8	-0.15122569
27	0xbe674083	-0.22583203
28	0x3e534543	0.2063189
29	0xbe3ac0ca	-0.18237606
30	0xbe79b86b	-0.24386756
31	0xbec17359	-0.37783316
32	0x3b7ab66f	0.0038255712
33	0x3d6f8c69	0.058483515
34	0x3d7ba0ef	0.061432775
35	0xbe9ebbd1	-0.31002668
36	0xbeb80813	-0.3594366
37	0xbe5ea7be	-0.21743676
38	0xbe9fcbca	-0.31210166
39	0xbdc7e24b	-0.09759959
40	0xbe055e06	-0.13024148
41	0x3ce9a63e	0.028521653
42	0xbdfd2663	-0.12360837
43	0x3e88707d	0.26648322
44	0xbf156044	-0.58350015
45	0x3e3618ca	0.17782894
46	0xbd8e7c6d	-0.06957326
47	0x3e6d552b	0.2317702
48	0x3ced9e35	0.029006103
49	0xbdbe6908	-0.09297377
50	0xbea7c516	-0.32767552
51	0xbdaa78c7	-0.08323818
52	0x3de8cf38	0.11367649
53	0x3e8ae088	0.2712443
54	0xbebcf23b	-0.36903557
55	0x3e1710c4	0.1475249
56	0x3a1d7f03	0.0006008001
57	0x3d5471ee	0.051866464
58	0x3d5ab1ce	0.053392224
59	0xbe8895e2	-0.26676852
60	0x3e3d5272	0.18488482
61	0xbe1bbf54	-0.15209705
62	0x3ceae134	0.028671838
63	0xbea822fe	-0.32839197
64	0x3e20e131	0.15710904
65	0xbcf09ed8	-0.029372618
66	0x3e99baba	0.30025274
67	0xbdf6c02c	-0.120483726
68	0xbebe6391	-0.37185338
69	0xbe91cdcf	-0.28477332
70	0xbea55eca	-0.3229888
71	0xbd95da63	-0.073170446
72	0xbea9c438	-0.33157516
73	0xbe7e11ee	-0.24811527
74	0x3eac19e6	0.3361351
75	0x3d41cfa7	0.047317173
76	0xbebeac33	-0.37240753
77	0x3e479cb1	0.19493367
78	0x3d701900	0.05861759
79	0x3de55963	0.1119869
80	0xbe394b78	-0.18095195
81	0x3e819444	0.2530843
82	0x3ee7d35e	0.45278448
83	0x3e5f9e00	0.21837616
84	0xbe8ba27f	-0.27272412
85	0xbe0a28e3	-0.1349216
86	0x3e72377a	0.23653975
87	0x3e2a4760	0.1662879
88	0x3d3a97b4	0.04555483
89	0xbd0e3b32	-0.03472442
90	0xbe502336	-0.20325932
91	0x3d8d26ba	0.06892152
92	0xba9c26d8	-0.0011913432
93	0x3c89a430	0.016801924
94	0xbeef489d	-0.46735087
95	0xbd14dd27	-0.03634372
96	0xbd156693	-0.036474776
97	0x3da241be	0.079226956
98	0xbdcd2b80	-0.100180626
99	0xbe4c5cdb	-0.19957297
100	0x3ec94a4c	0.39314497
101	0xbdb1f886	-0.0868998
102	0xbe4aec34	-0.19816667
103	0xbd9da045	-0.076965846
104	0xbe1be1cc	-0.15222853
105	0xbe111107	-0.14166652
106	0xbebebfa4	-0.37255585
107	0xbda58b50	-0.080832124
108	0xbe9e97e1	-0.3097525
109	0xbea92ac1	-0.3304043
110	0xbda833d6	-0.08213012
111	0xbe024a14	-0.12723571
112	0xbe7ed59b	-0.24886172
113	0x3e354fec	0.17706269
114	0x3de83c2c	0.11339602
115	0x3d7c4a65	0.061594386
116	0xbea0720d	-0.31337014
117	0x3e227257	0.1586393
118	0xbe2ab37c	-0.1667003
119	0xbbf7c1d8	-0.00756095
120	0xbe426c4e	-0.18986627
121	0xbeb7c36b	-0.3589128
122	0xbea2638e	-0.3171658
123	0x3ea14525	0.31498066
124	0xbedeb741	-0.43499187
125	0x3dba6bf0	0.09102619
126	0x3d863cfd	0.06554601
127	0x3ea8149a	0.32828218

net.4.running_var f4 [128]
0	0x3ce753e3	0.028238242
1	0x3df0a898	0.11750907
2	0x3e888262	0.26661974
3	0x3dad7df5	0.0847129
4	0x3cc77e2f	0.024352161
5	0x3c4f210a	0.0126421545
6	0x3cbf019f	0.023316203
7	0x3d5315a7	0.05153432
8	0x3d5d7623	0.054067742
9	0x3d10495b	0.035226207
10	0x3d8467a6	0.06465082
11	0x3d5e5c46	0.054287218
12	0x3e57c4e3	0.210712
13	0x3d04ad3b	0.032391768
14	0x3d9dc085	0.07702736
15	0x3d22310e	0.039597563
16	0x3cf487d1	0.029849919
17	0x3d88e40e	0.06684123
18	0x3d6bae95	0.05753954
19	0x3d99a4dc	0.075021476
20	0x3e06655d	0.13124605
21	0x3def1d46	0.11675505
22	0x3d17bda0	0.037046075
23	0x3c03f7cf	0.008054688
24	0x3ca71357	0.020394964
25	0x3c72abd9	0.0148114795
26	0x3d16fed3	0.036864113
27	0x3d2c44cd	0.0420578
28	0x3df61d59	0.12017316
29	0x3cacb5d6	0.0210828
30	0x3c355a18	0.011068843
31	0x3e0a0596	0.13478693
32	0x3d67946d	0.056538034
33	0x3cef9fd0	0.02925101
34	0x3cfe4b6f	0.031041829
35	0x3e11f682	0.14254192
36	0x3d883775	0.066512026
37	0x3dc12683	0.09431174
38	0x3dab93fe	0.08377837
39	0x3d22af0c	0.03971772
40	0x3e5be5f6	0.21474442
41	0x3d0ff0a3	0.0351416
42	0x3d87c7d6	0.066299126
43	0x3d45bed7	0.048277702
44	0x3dc147ed	0.09437547
45	0x3d035e57	0.03207239
46	0x3cb83e3d	0.022490615
47	0x3be4c643	0.0069816425
48	0x3bf046bc	0.007332651
49	0x3cbbf143	0.022942191
50	0x3d9b2d3e	0.07576989
51	0x3c029905	0.007971053
52	0x3c4d8fef	0.0125465235
53	0x3cf830a7	0.030296637
54	0x3d90420b	0.07043847
55	0x3ca3b598	0.019984052
56	0x3ba89c62	0.0051455954
57	0x3dcb8c67	0.09938889
58	0x3c898a47	0.016789569
59	0x3ca548da	0.02017634
60	0x3c4ec4c1	0.012620152
61	0x3c981b99	0.018567847
62	0x3d9c40eb	0.076295696
63	0x3d6d9c69	0.058010492
64	0x3c63c42f	0.013901754
65	0x3ce7adb9	0.02828108
66	0x3d1ae7ed	0.037818838
67	0x3cbc43bd	0.022981519
68	0x3db3da01	0.08781815
69	0x3c325c30	0.010886237
70	0x3c9e5cd0	0.019331366
71	0x3d1f5dd8	0.038907856
72	0x3d18bf54	0.03729184
73	0x3ca6c016	0.020355266
74	0x3cb3610e	0.021896865
75	0x3c3529d4	0.011057336
76	0x3e2c176d	0.16805811
77	0x3c2073b4	0.009793211
78	0x3cce7ff7	0.025207503
79	0x3c9c6b44	0.019094117
80	0x3c1e9369	0.0096787
81	0x3d3b37f2	0.04570765
82	0x3e82fc1f	0.25582978
83	0x3bfe132d	0.007753751
84	0x3d07172f	0.032981094
85	0x3cecaf66	0.02889223
86	0x3da0a509	0.07843978
87	0x3d66da34	0.05636044
88	0x3d9b33c9	0.075782366
89	0x3cfaf96b	0.03063651
90	0x3cdbdc42	0.026838426
91	0x3d375de7	0.044767287
92	0x3d9211ca	0.07132299
93	0x3cc76af7	0.024342997
94	0x3e2449bc	0.16043752
95	0x3e61efe1	0.22064163
96	0x3c2e23e4	0.010628674
97	0x3d44739b	0.047961812
98	0x3d4944b4	0.049137786
99	0x3cbf5796	0.023357194
100	0x3d0d26ee	0.034460954
101	0x3d2be7ee	0.041969232
102	0x3e12569c	0.14290851
103	0x3d08167e	0.033224575
104	0x3c97b4bb	0.018518796
105	0x3cfcf729	0.030879574
106	0x3e0acf16	0.1355556
107	0x3c26259e	0.010140805
108	0x3c3d6163	0.011558863
109	0x3d911ac0	0.0708518
110	0x3cbd5bf3	0.023115134
111	0x3d152502	0.036412247
112	0x3de80c95	0.11330525
113	0x3c95f58f	0.018305568
114	0x3ce07d8c	0.027403615
115	0x3db3490f	0.08754169
116	0x3e05b519	0.13057365
117	0x3d97ba55	0.07408587
118	0x3e07987b	0.1324176
119	0x3d5ffce2	0.054684527
120	0x3cccb766	0.024989795
121	0x3d896978	0.0670957
122	0x3cdea89b	0.027180007
123	0x3e134412	0.14381436
124	0x3d8227e7	0.06355267
125	0x3d97a7ff	0.074050896
126	0x3cd854d2	0.026407633
127	0x3e06ec24	0.13176018
