model_forward/model_plant-epoch=83.pth (torch, 965408 bytes, 20 tensors)

net.0.weight f4 [128, 1564]
-2.4438993e-38 -3.759353e-38 1.820836e-38 -1.2690484e-38 -0.022129176 0.07176781 -3.024114e-39 -2.361866e-39
5.71449e-39 -0.0541681 -0.028925247 -0.021897323 -0.009623311 0.09639539 -3.6782639e-38 2.269818e-39
2.6151458e-38 -1.094274e-38 -0.028021982 -0.044831853 0.061416384 0.025212077 -0.022406122 0.03283202
-0.025689464 0.012292025 -0.012826641 -0.0073591657 -0.025125366 -0.0006902451 -0.012985701 0.023073673
-0.010354215 -0.012492303 -0.015870778 0.0049283938 0.05555869 -6.396563e-39 0.0076714954 0.010495457
-0.010348078 0.0026135584 0.0068134605 0.016715579 -0.022154434 0.004507708 0.024792628 0.030927991
0.0159176 2.30115e-39 0.00839477 0.0030189645 2.1012824e-38 -0.00029877858 -0.009628685 0.023806494
0.10342044 0.05235153 -0.017687747 0.037880365 -3.3667832e-38 0.0043523475 -0.039955184 -0.022012614
0.06826817 -3.541237e-38 1.3688052e-38 -5.992344e-38 2.6245485e-38 0.03276766 0.05802147 -3.5461847e-38
4.490691e-39 -2.8015734e-38 0.09069406 -0.010171789 -0.016875364 -0.066024214 0.04993132 6.579639e-38
6.792598e-38 -2.6930395e-38 -1.0180854e-38 -0.0073598255 -0.007285204 0.05167253 -0.02531932 0.032404285
0.10169527 -0.0037484341 -0.0660507 0.010649448 0.016602589 -0.015909506 0.005820547 0.0035615535
-0.021805326 -0.035846043 0.034086328 0.008118744 -0.005866511 -0.015671602 3.6938205e-38 -0.0026231222
-0.018894933 -0.013208698 -0.0022193335 -0.023048824 0.00066235755 -0.026428444 0.03719419 -0.004856188
-0.011097478 -0.0032464874 3.5176453e-38 0.025514564 -0.010181567 2.0736291e-38 -0.0094578685 0.0011352837
0.027909376 0.060672127 0.051367756 -0.016781881 0.021187196 3.497288e-39 0.016563471 0.0026750518
0.019053679 -0.064805776 3.376434e-39 3.2243508e-38 2.657253e-38 -6.55965e-40 0.0075045326 -0.045297384
7.75893e-40 -5.1179893e-38 4.3965493e-38 0.021224063 0.029043356 -0.08912418 0.025026873 0.058641158
2.7871703e-38 -6.0025124e-38 -4.5534925e-38 4.1943458e-38 -0.029946785 -0.09278553 -0.069539204 -0.04129963
-0.018750982 0.018356815 0.090849176 0.05416478 0.06605456 0.013599479 -0.017391384 0.0048943837
0.010012123 0.0014348254 -0.008437211 0.03551419 0.015572408 -0.012461554 -0.011707555 -8.678925e-39
0.002166007 0.0040605785 -0.009787544 0.004330522 -0.011884805 0.014214058 -0.031167103 0.015543314
-0.007729956 -0.060957428 0.0041254233 8.268188e-39 0.01577536 0.010944478 3.1194372e-38 0.01489133
-0.008847835 0.042618927 -0.10289082 0.03467154 -0.014451842 0.028319178 -4.167077e-38 0.023565043
-0.01665402 0.029580962 -0.07432414 -5.1835314e-38 -3.809811e-39 -5.033306e-38 -5.8562247e-38 -0.02129476
0.0023217516 -2.0024314e-38 4.8996636e-38 2.4306649e-38 0.018178908 -0.0035475942 -0.024210708 0.003162345
-0.065705135 -4.3218489e-38 1.0257224e-38 -1.9439244e-38 2.523798e-38 -0.017497048 0.028384048 0.0077575906
0.02357567 0.052212164 0.011002468 0.03999642 -0.007234377 -0.04051449 0.008654985 -0.0124785
0.014559304 0.0062971986 0.032419853 0.050831016 0.007629047 0.02842143 0.01321598 0.010300968
-6.51791e-39 0.005054846 -0.016864795 0.012010868 0.0007496443 -0.014145044 -0.011306266 -0.033440556
0.07496807 0.011920855 -0.017700415 0.0075062513 4.5706085e-38 0.028028095 -0.011305037 2.4615293e-38
-0.010061166 -0.0010115786 0.04007269 -0.07813211 0.0367851 0.0024326094 0.021680122 1.69445e-40
00000000: fc0e 0581 bcad 4c81 8045 c600 e82f 8a80
00000010: 3f48 b5bc 00fb 923d 00ee 2080 ecb7 1980
00000020: ac39 3e00 5fdf 5dbd a4f4 ecbc 0462 b3bc
00000030: 18ab 1dbc f26a c53d 8443 4881 54b7 1800
00000040: d061 0e01 e827 7780 5b8e e5bc 9ba1 37bd
00000050: bf8f 7b3d 8f89 ce3c 0b8d b7bc de7a 063d
00000060: b672 d2bc 7d64 493c d526 52bc 2825 f1bb
00000070: b6d3 cdbc 91f1 34ba fac1 54bc 0005 bd3c
00000080: baa4 29bc 84ac 4cbc 6f03 82bc 5d7e a13b
00000090: 8291 633d 04a7 4580 2b61 fb3b 23f5 2b3c
000000a0: fc8a 29bc 3c48 2b3b 7343 df3b 1cef 883c
000000b0: 377d b5bc 65b5 933b e919 cb3c b35c fd3c
000000c0: a065 823c ac0e 1900 388a 093c d2d9 453b
000000d0: 34cf e400 62a5 9cb9 a2c1 1dbc d605 c33c
000000e0: 18ce d33d 8f6e 563d e5e5 90bc 7128 1b3d
000000f0: 1c4e 3781 239e 8e3b 0ca8 23bd cc53 b4bc
00000100: 2fd0 8b3d a4cd 4081 b80c 9500 8b20 a381
00000110: dee4 0e01 6237 063d eca7 6d3d 9a12 4181
00000120: 38e6 3000 3c88 1881 cfbd b93d 93a7 26bc
00000130: 343e 8abc b437 87bd c984 4c3d 641d b301
00000140: 80e9 b801 7e9f 1281 14dc 6e80 b12a f1bb
00000150: b8b8 eebb 93a6 533d 766a cfbc 5bba 043d
00000160: 9c45 d03d 4aa8 75bb 9745 87bd 067b 2e3c
00000170: 2702 883c a754 82bc 4aba be3b f468 693b
00000180: 15a1 b2bc 4dd3 12bd 1b9e 0b3d 7b04 053c
00000190: dc3b c0bb bb61 80bc 581c 4901 b0e8 2bbb
000001a0: 8cc9 9abc 4b69 58bc 3d72 11bb e3d0 bcbc
000001b0: 10a2 2d3a 7780 d8bc ef58 183d a820 9fbb
000001c0: 32d2 35bc 05c3 54bb d284 3f01 eb03 d13c
000001d0: 96d0 26bc 58cc e100 2df5 1abc cdcd 943a
000001e0: 34a2 e43c 5683 783d ff66 523d 287a 89bc
000001f0: c590 ad3c 0415 2600 1eb0 873c ec4f 2f3b
00000200: 7616 9c3c e4b8 84bd 20c4 2400 e48c 2f01
00000210: b4ac 1001 9024 0780 95e8 f53b c089 39bd
00000220: e072 0800 2e53 8b81 f45e 6f01 16de ad3c
00000230: 55ec ed3c bd86 b6bd 2805 cd3c b631 703d
00000240: 7cbf 1701 6867 a381 6cea 7781 a65c 6401
00000250: f652 f5bc 5706 bebd 926a 8ebd cd29 29bd
00000260: a99b 99bc 0861 963c 220f ba3d e3db 5d3d
00000270: 9d47 873d 59d0 5e3c 6078 8ebc 1161 a03b
00000280: e309 243c c010 bc3a 3a3c 0abc 5477 113d
00000290: 6a23 7f3c 8c2b 4cbc 0bd1 3fbc 5081 5e80
000002a0: 91f3 0d3b 9a0e 853b ef5b 20bc 0de7 8d3b
000002b0: 7cb8 42bc 15e2 683c 2752 ffbc 62a9 7e3c
000002c0: 924b fdbb 7fae 79bd 8f2e 873b 5808 5a00
000002d0: 543b 813c 7850 333c 9cd6 2901 c4fa 733c
000002e0: 82f6 10bc 2f91 2e3d 6cb8 d2bd bf03 0e3d
000002f0: 6bc7 6cbc 9ffd e73c 94e0 6281 7a0b c13c
00000300: 036e 88bc c653 f23c 4137 98bd f11b 8d81
00000310: 347c 2980 0605 8981 ee6b 9f81 5972 aebc
00000320: 8728 183b a40b da80 ac61 8501 8656 0401
00000330: efeb 943c c17e 68bb 8955 c6bc 583f 4f3b
00000340: 6a90 86bd c84d 6b81 f8b0 6f00 b4ac d380
00000350: 9c68 0901 f855 8fbc aa85 e83c 6333 fe3b
00000360: c321 c13c 6cdc 553d b243 343c 49d3 233d
00000370: 5a0e edbb 86f2 25bd a3cd 0d3c 9f72 4cbc
00000380: 268a 6e3c bb58 ce3b aeca 043d 2f34 503d
00000390: 16fd f93b 0fd4 e83c d687 583c 64c5 283c
000003a0: 48f9 4680 1fa3 a53b 0a28 8abc 3bc9 443c
000003b0: c783 443a 9dc0 67bc eb3d 39bc f7f8 08bd
000003c0: dc88 993d b14f 433c 7600 91bc 00f7 f53b
000003d0: fcd8 7801 2d9b e53c c338 39bc b604 0601
000003e0: 97d7 24bc f296 84ba 4323 243d ba03 a0bd
000003f0: f9ab 163d 6a6c 1f3b 839a b13c 58d8 0100

net.0.bias f4 [128]
2.0779133e-08 -4.8717983e-08 2.4925143e-08 2.9306788e-08 -3.7994887e-08 -5.7918257e-09 -3.0386776e-08 -3.6697177e-08
1.2983259e-07 4.534398e-08 -9.985127e-10 5.4760985e-08 -1.21871e-08 -4.7977764e-08 5.6518903e-08 -1.3269234e-07
-9.598619e-10 -2.8141512e-08 6.438179e-08 -2.5864063e-07 -8.6817195e-08 -4.761052e-08 -3.2965147e-08 3.7918024e-08
-2.0596108e-08 3.1629113e-09 9.946066e-08 -6.832622e-09 3.582796e-08 2.5949856e-08 2.190149e-08 8.157651e-08
-2.3656188e-10 -4.8768488e-08 -4.923733e-09 4.7853597e-08 9.584884e-10 8.4030205e-09 -3.4230116e-08 -5.221285e-08
-5.4664273e-08 -2.2630213e-09 7.6484994e-08 2.4226258e-08 1.0938643e-07 3.623666e-08 2.5132024e-08 1.9435165e-09
-7.380312e-08 3.137418e-08 -5.4809554e-08 -2.9160342e-08 1.8890786e-08 2.8058205e-08 -4.1311914e-08 -1.781473e-08
1.5031097e-07 -2.2073944e-08 3.1743244e-08 -2.195296e-08 3.3153817e-08 3.7435978e-08 -3.5848846e-08 -1.3812891e-08
-3.0032425e-08 2.0164507e-07 -1.8822094e-08 2.4930657e-08 -1.8495468e-08 -5.5461733e-09 -1.215853e-08 7.687019e-08
-3.391455e-08 3.244225e-08 1.312727e-07 1.6140056e-08 -5.4365064e-08 2.3779927e-08 4.2721297e-07 1.6858161e-08
-1.5146254e-08 -9.3335855e-09 9.613362e-09 2.5672007e-09 1.4513904e-07 4.2421995e-08 6.01235e-08 3.6020793e-08
-5.0341097e-08 1.7172773e-08 4.3186463e-09 2.19176e-08 1.8237083e-08 1.1794516e-07 -1.566365e-08 2.2609055e-07
1.726967e-09 -9.957514e-09 -1.8293808e-07 -7.454316e-08 1.3059858e-07 3.8674495e-09 -4.9864664e-08 5.5562315e-09
1.1166806e-08 -1.3133572e-08 4.6107626e-08 -6.0827228e-09 1.0501716e-07 -4.1760657e-08 8.332855e-09 -1.7107622e-08
5.4945213e-09 -5.7406084e-09 -4.318653e-08 -7.543988e-08 -2.7531234e-08 2.653381e-08 2.156591e-08 3.9620325e-08
4.066156e-08 -1.4029024e-07 1.6642628e-09 1.8925045e-08 -1.0341868e-08 -2.903095e-08 1.326902e-07 -3.1173922e-08
00000000: cc7d b232 fd3d 51b3 f81a d632 4fbe fb32
00000010: d22f 23b3 7001 c7b1 9d82 02b3 f99c 1db3
00000020: 1c68 0b34 3cc0 4233 0b3c 89b0 5732 6b33
00000030: 6f5f 51b2 1c10 4eb3 31bf 7233 317a 0eb4
00000040: 23ec 83b0 d7bb f1b2 4342 8a33 4cdb 8ab4
00000050: 4270 bab3 527c 4cb3 9095 0db3 4fdb 2233
00000060: 52eb b0b2 865a 5931 1397 d533 61c4 eab1
00000070: 42e1 1933 56e8 de32 e321 bc32 292f af33
00000080: 200d 82af 8575 51b3 9d2d a9b1 9687 4d33
00000090: d0bb 8330 e05c 1032 6904 13b3 a340 60b3
000000a0: 01c8 6ab3 7e83 1bb1 1240 a433 1b1a d032
000000b0: d3e7 ea33 a1a2 1b33 e8e1 d732 b48e 0531
000000c0: b27d 9eb3 47c0 0633 be67 6bb3 457c fab2
000000d0: 4745 a232 a504 f132 ee6e 31b3 0107 99b2
000000e0: 2a65 2134 1e9d bdb2 1156 0833 1293 bcb2
000000f0: 0265 0e33 4bc9 2033 39f8 19b3 bd4d 6db2
00000100: 00fd 00b3 c683 5834 39ae a1b2 1827 d632
00000110: f7df 9eb2 a890 beb1 c8e1 50b2 d513 a533
00000120: 71a9 11b3 a256 0b33 f7f3 0c34 5ca4 8a32
00000130: 057f 69b3 9d44 cc32 b45b e534 7dcf 9032
00000140: f71a 82b2 8b59 20b2 0328 2532 ac6a 3031
00000150: 84d7 1b34 7a33 3633 3e1d 8133 48b5 1a33
00000160: 9f36 58b3 5483 9332 3763 9431 5045 bc32
00000170: c5a7 9c32 0a49 fd33 bb8c 86b2 4cc3 7234
00000180: 405a ed30 9c11 2bb2 a36d 44b4 8914 a0b3
00000190: aa3a 0c34 72e2 8431 c72a 56b3 21e9 be31
000001a0: 22d8 3f32 0fa2 61b2 df07 4633 3200 d1b1
000001b0: cb85 e133 545c 33b3 4928 0f32 0ff4 92b2
000001c0: 52ca bc31 ed3e c5b1 187c 39b3 8301 a2b3
000001d0: d37d ecb2 77ec e332 f03f b932 022b 2a33
000001e0: dca3 2e33 b0a2 16b4 0bbc e430 9d90 a232
000001f0: 04ac 31b2 bc5f f9b2 9b79 0e34 17e4 05b3

net.1.weight f4 [128]
0.6705973 0.7122848 0.6565358 0.8888451 0.74270666 0.7788598 0.6635732 0.73681706
0.927343 0.71048796 0.8259014 0.7512341 0.6139442 0.77067417 0.8702646 0.8440499
0.7321393 0.7162211 0.8540374 1.016268 0.79250044 0.76590705 0.85510707 0.7362855
0.61281556 0.7223305 0.75191563 0.6674609 0.8795576 0.6585054 0.6779223 0.8166216
0.7039547 0.6660617 1.0161281 0.6843867 0.9670549 0.7986333 0.7237895 0.72942376
0.97721344 0.7519537 0.97181904 0.8729574 0.85916173 0.69192654 0.6397944 0.9869026
0.8988942 0.7315066 0.802208 0.7608503 0.9124753 0.6512862 0.66548914 0.7596278
0.9398004 0.69587296 0.6744691 0.6827151 0.97022456 0.7963975 0.7876622 0.8796094
0.7770377 0.8290158 0.61734295 0.87965435 0.6778443 0.6663369 1.084541 0.75147
0.7937283 0.7446837 0.98213077 0.87556493 0.8862312 0.7147005 1.00158 0.6718783
0.6615633 0.7788816 0.7248754 0.77809626 0.8598291 0.71076274 0.73424757 0.6381718
0.81315374 0.6502951 0.6897894 0.6318501 0.7714599 0.7165629 0.64350426 1.0521476
0.8849372 0.67542756 0.9115043 0.6543009 0.8285653 0.61546785 0.65411395 0.68723786
0.6920251 0.6589265 0.69787365 0.649221 0.8547204 0.77240276 0.6844164 0.7233466
0.7424608 0.6451528 0.9851857 0.88493973 0.78807926 0.6733229 0.929729 0.7112154
0.7298502 0.86541533 0.63822454 0.691947 0.752245 0.7381967 0.8633721 0.6215485
00000000: 44ac 2b3f 4c58 363f bb12 283f 5a8b 633f
00000010: 0622 3e3f 5b63 473f efdf 293f 0ba0 3c3f
00000020: 5a66 6d3f 8ae2 353f 466e 533f e150 403f
00000030: 722b 1d3f e74a 453f a9c9 5e3f a713 583f
00000040: 7b6d 3b3f 445a 373f 32a2 5a3f 1215 823f
00000050: 4fe1 4a3f 7c12 443f 4ce8 5a3f 357d 3c3f
00000060: 7be1 1c3f a7ea 383f 8b7d 403f b8de 2a3f
00000070: b02a 613f cf93 283f 518c 2d3f 1d0e 513f
00000080: 6036 343f 0583 2a3f 7c10 823f f733 2f3f
00000090: e990 773f 3b73 4c3f 454a 393f 84bb 3a3f
000000a0: a92a 7a3f 0a80 403f 22c9 783f 237a 5f3f
000000b0: 06f2 5b3f 1922 313f 91c9 233f a6a5 7c3f
000000c0: ee1d 663f 0444 3b3f 815d 4d3f 16c7 423f
000000d0: fb97 693f b1ba 263f 7f5d 2a3f f876 423f
000000e0: c296 703f bb24 323f 02aa 2c3f 6bc6 2e3f
000000f0: a360 783f b5e0 4b3f 3ba4 493f 152e 613f
00000100: f1eb 463f 613a 543f 300a 1e3f 0731 613f
00000110: 3487 2d3f 0e95 2a3f 3dd2 8a3f 5760 403f
00000120: c731 4b3f 97a3 3e3f ec6c 7b3f 0625 603f
00000130: 0ce0 623f 9df6 363f c633 803f 3700 2c3f
00000140: 365c 293f c964 473f 6f91 393f 5131 473f
00000150: c31d 5c3f 8cf4 353f a6f7 3b3f 3a5f 233f
00000160: d82a 503f bd79 263f 0a96 303f eec0 213f
00000170: 657e 453f ab70 373f b2bc 243f c6ac 863f
00000180: 3f8b 623f d2e8 2c3f 5958 693f 4480 273f
00000190: db1c 543f 4d8f 1d3f 0374 273f d2ee 2f3f
000001a0: 8f28 313f 68af 283f d9a7 323f 5933 263f
000001b0: f5ce 5a3f 30bc 453f ea35 2f3f 3e2d 393f
000001c0: e911 3e3f bc28 253f 2135 7c3f 698b 623f
000001d0: 90bf 493f e45e 2c3f b802 6e3f 3612 363f
000001e0: 76d7 3a3f dc8b 5d3f af62 233f 7023 313f
000001f0: 2193 403f 75fa 3c3f f405 5d3f cd1d 1f3f

net.1.bias f4 [128]
-0.087157056 -0.14669888 -0.08480533 0.022553077 -0.09883104 -0.11862228 -0.14549112 -0.12670928
-0.008209024 -0.12537088 -0.17586273 -0.1639936 -0.0793648 -0.06663412 0.022143265 -0.04450571
0.02907542 0.11648204 -0.10098267 0.04916137 -0.15523759 -0.035532802 0.12343498 -0.068804465
-0.20528565 0.006538649 -0.16147198 -0.08477176 0.026739813 -0.123435564 -0.1409856 -0.095794134
-0.106533565 -0.07433631 0.35013628 -0.09349417 -0.1496412 -0.12807584 0.007518443 -0.041481048
-0.05436301 -0.18355018 0.10615012 -0.04579206 -0.11030735 -0.23831879 -0.06616804 0.063487746
-0.04806349 -0.15674666 -0.08090072 -0.041561775 0.007836653 -0.17084564 -0.09506963 -0.060102902
-0.02033091 0.14135335 -0.13373347 -0.11693599 0.19332 0.1509175 -0.016635697 -0.03343688
-0.04914675 0.26937094 -0.07613997 0.01747793 -0.05960621 -0.10911291 0.12632452 -0.16570644
-0.064989656 -0.048938766 -0.013799408 0.10785358 -0.013988035 -0.13054311 0.22432059 -0.04676487
-0.025849154 -0.048813324 -0.09791698 -0.11180426 0.04855788 -0.13344663 -0.19177346 0.04426862
-0.06486941 -0.11382014 -0.033314098 -0.034618024 -0.119176894 -0.11929889 -0.058138393 0.2378385
-0.11062394 -0.12042032 -0.01259665 0.03329658 -0.050527927 -0.103277355 -0.097238086 -0.19451258
-0.17048961 -0.09118754 -0.21282686 -0.09614757 -0.075706415 -0.09059797 -0.25882268 -0.17977412
0.007908437 -0.1626527 0.008332572 -0.04052769 -0.01631339 -0.01731476 -0.005758815 -0.002354514
-0.008433103 -0.017055912 -0.13001582 -0.21830559 -0.06306161 0.06235632 0.03343901 -0.16709316
00000000: 667f b2bd 3b38 16be 6bae adbd 3bc1 b83c
00000010: ee67 cabd 3df0 f2bd a0fb 14be 14c0 01be
00000020: 247f 06bc 3961 00be 5c15 34be f0ed 27be
00000030: 038a a2bd 7877 88bd cb65 b53c 9f4b 36bd
00000040: 932f ee3c 238e ee3d 01d0 cebd 6f5d 493d
00000050: 9af6 1ebe d88a 11bd 7bcb fc3d 5be9 8cbd
00000060: 6736 52be 2a42 d63b e958 25be d19c adbd
00000070: 740d db3c c9cb fcbd 875e 10be b72f c4bd
00000080: 452e dabd a33d 98bd 1045 b33e df79 bfbd
00000090: 8b3b 19be 5026 03be 455d f63b 08e8 29bd
000000a0: bfab 5ebd 94f4 3bbe 3c65 d93d 7590 3bbd
000000b0: d2e8 e1bd d709 74be 1c83 87bd dd05 823d
000000c0: 39de 44bd 3282 20be 47af a5bd ae3c 2abd
000000d0: 4e65 003c 29f2 2ebe deb3 c2bd 762e 76bd
000000e0: 028d a6bc efbe 103e 6df1 08be 237c efbd
000000f0: aef5 453e 1e8a 1a3e 9647 88bc 1cf5 08bd
00000100: 1a4e 49bd fdea 893e 46ef 9bbd e02d 8f3c
00000110: a425 74bd 9776 dfbd 375b 013e f3ae 29be
00000120: 4c19 85bd 0474 48bd ea16 62bc 56e2 dc3d
00000130: 122e 65bc 18ad 05be 4cb4 653e 858c 3fbd
00000140: 9bc1 d3bc 7bf0 47bd b388 c8bd a2f9 e4bd
00000150: a1e4 463d 3ca6 08be 4360 44be 0353 353d
00000160: 41da 84bd 891a e9bd 5d74 08bd a1cb 0dbd
00000170: 0413 f4bd fa52 f4bd 8622 6ebd f08b 733e
00000180: ce8e e2bd ee9e f6bd 2e62 4ebc ff61 083d
00000190: 5ff6 4ebd 1483 d3bd c324 c7bd 4e2e 47be
000001a0: d494 2ebe 88c0 babd 49ef 59be 04e9 c4bd
000001b0: f70b 9bbd 6e8b b9bd 6884 84be b516 38be
000001c0: 6492 013c 6e8e 26be 5785 083c 5d00 26bd
000001d0: a9a3 85bc afd7 8dbc 71b4 bcbb 314e 1abb
000001e0: ff2a 0abc d7b8 8bbc de22 05be 808b 5fbe
000001f0: 7226 81bd 5769 7f3d 58f7 083d 781a 2bbe

net.1.running_mean f4 [128]
-0.049723513 -0.015116432 0.0139767425 0.075388074 -0.03091549 0.034622837 0.012295044 -0.084223434
-0.028879028 0.0063831387 -0.034381542 0.005775171 -0.0042014658 0.04620769 0.027981605 -0.0811419
-0.0013687692 -0.044104226 0.031403676 -0.064116955 -1.5715323e-05 -0.06311887 -0.048879188 0.003457873
0.030682487 0.04112166 0.014589743 -0.05106809 -0.013965692 0.03729551 0.083614305 -0.048276737
0.041589722 -0.05292634 -0.06319997 -0.051156603 -0.05624143 0.035369568 0.025294043 0.0064153178
-0.06499624 0.030642902 -0.027135406 0.047416963 0.042415656 0.015729193 -0.007173151 -0.09504423
-0.014976804 0.026949137 0.055027522 0.01885741 0.049428098 -0.0021988133 0.01473628 -0.054872528
-0.06870533 0.040207908 0.030275036 0.009137685 -0.0140582 -0.057105802 -0.026534364 0.071442805
0.016108628 0.0537089 0.030394636 -0.06865707 0.02513038 -0.0036401313 0.038991075 -0.0135603
0.024331745 -0.027176548 -0.07475821 0.018356858 -0.057865214 0.0116074905 -0.025345834 -0.026254185
-0.057144877 0.037183087 -0.011523248 0.06861417 -0.07420616 0.032573592 -0.023126703 -0.028547168
-0.007844908 -0.021356974 0.03726736 -0.027696993 0.042278003 0.034241073 0.030425081 -0.07083916
-0.00034668538 -0.032656457 -0.05126198 -0.04974581 -0.0025658896 -0.00023372247 -0.018270431 -0.028531171
0.028784337 0.0533807 -0.002178854 -0.018195622 -0.041679714 -0.03447393 -0.0048589744 0.056157447
0.05765277 -0.06536611 -0.02558929 -0.048489988 -0.05340808 -0.01517406 0.060857452 -0.02334836
-0.1096583 -0.021904372 -0.01580111 0.04948521 0.0017650251 -0.028716665 0.033179052 -0.0016986481
00000000: e2aa 4bbd e9aa 77bc b5fe 643c 1065 9a3d
00000010: 7b42 fdbc add0 0d3d 2771 493c 567d acbd
00000020: b693 ecbc a629 d13b a9d3 0cbd a53d bd3b
00000030: 73ac 89bb 4644 3d3d ae39 e53c b92d a6bd
00000040: 4668 b3ba a2a6 34bd 24a1 003d c04f 83bd
00000050: 66d4 83b7 7744 81bd 8b35 48bd 7b9d 623b
00000060: d759 fb3c 306f 283d d109 6f3c c62c 51bd
00000070: 5cd0 64bc 2dc3 183d fa3d ab3d d4bd 45bd
00000080: fc59 2a3d 4ac9 58bd fc6e 81bd 9689 51bd
00000090: 6a5d 66bd aedf 103d 7435 cf3c 9637 d23b
000000a0: c01c 85bd d306 fb3c 124b debc 4a38 423d
000000b0: 0abc 2d3d 82da 803c c00c ebbb 8da6 c2bd
000000c0: 4561 75bc 70c4 dc3c 8a64 613d db7a 9a3c
000000d0: 1e75 4a3d f719 10bb 7070 713c 04c2 60bd
000000e0: 61b5 8cbd 0cb1 243d 5a03 f83c 3bb6 153c
000000f0: 5d54 66bc c6e7 69bd 985e d9bc 9b50 923d
00000100: 3ef6 833c ddfd 5b3d 2cfe f83c 149c 8cbd
00000110: 3ade cd3c 458f 6ebb 1bb5 1f3d 052c 5ebc
00000120: 5e53 c73c 5aa1 debc d51a 99bd 1f61 963c
00000130: 1304 6dbd 582d 3e3c 11a2 cfbc 0413 d7bc
00000140: bf10 6abd 4b4d 183d 01cc 3cbc 9685 8c3d
00000150: 66f9 97bd e36b 053d 3674 bdbc c0db e9bc
00000160: ee87 00bc d2f4 aebc a9a5 183d cee4 e2bc
00000170: b32b 2d3d 5e40 0c3d 053e f93c 1f14 91bd
00000180: 53c3 b5b9 c7c2 05bd 15f8 51bd 43c2 4bbd
00000190: 7c28 28bb 6613 75b9 dfab 95bc 34ba e9bc
000001a0: 21cd eb3c b9a5 5a3d 1bcb 0ebb fc0e 95bc
000001b0: 59b8 2abd 8934 0dbd 0838 9fbb 5a05 663d
000001c0: 5025 6c3d abde 85bd a1a0 d1bc 709d 46bd
000001d0: 6ec2 5abd 9f9c 78bc aa45 793d 0f45 bfbc
000001e0: 8894 e0bd cc70 b3bc 5471 81bc 01b1 4a3d
000001f0: 6a58 e73a 363f ebbc c2e6 073d 2ca5 deba

net.1.running_var f4 [128]
4.9657283 8.038915 4.9503436 11.988614 5.1038065 6.9604187 4.2798524 7.320277
8.440885 5.7316422 15.59904 8.759529 4.295356 7.0182776 8.749896 16.771341
5.1364202 4.3773956 10.342237 15.839147 7.98152 7.970762 5.5537148 4.902596
4.3796444 6.238096 5.958359 3.968852 9.842805 5.368855 4.871472 7.516011
5.237873 4.551572 10.217722 5.2519965 29.028866 7.0646343 5.576766 5.7113953
22.858316 5.9650593 11.48356 10.062263 12.045111 4.547988 6.5115695 16.303955
6.680682 6.6833863 4.6050954 6.130667 9.725478 4.02203 4.8786616 4.6194324
12.9085655 3.7877014 4.056198 3.6928632 9.9085655 10.222608 7.449367 11.561406
8.453773 2.8863893 2.5295362 17.166092 5.83489 5.195116 7.567392 5.3486667
5.6916227 8.09934 21.194723 4.8787475 13.292143 5.175666 3.1124523 5.1956677
3.3861268 5.210586 5.9597626 6.9355407 8.703835 5.9947314 4.135042 1.8336763
8.426333 3.9635246 6.020004 3.538014 5.5573583 6.377797 5.463938 8.138553
5.153559 4.221152 4.1371207 5.449791 5.195933 3.533874 3.8899 6.205646
5.063684 4.315383 6.89948 3.00761 10.003239 3.8494678 4.254655 5.131767
7.2676306 4.1576366 7.961287 12.043136 8.75442 4.697233 18.501404 5.8027754
6.441972 10.615756 4.2263885 4.5364575 7.299688 8.274079 4.240125 4.0892606
00000000: 3fe7 9e40 659f 0041 3769 9e40 5dd1 3f41
00000010: 6252 a340 c0bb de40 8df4 8840 b63f ea40
00000020: dd0d 0741 9d69 b740 ab95 7941 0827 0c41
00000030: 8e73 8940 bb95 e040 93ff 0b41 b52b 8641
00000040: 8e5d a440 a013 8c40 ce79 2541 256d 7d41
00000050: 9d68 ff40 7b10 ff40 08b8 b140 11e2 9c40
00000060: 0c26 8c40 7c9e c740 e0aa be40 ac01 7e40
00000070: 217c 1d41 a9cd ab40 19e3 9b40 2a83 f040
00000080: a89c a740 7aa6 9140 ca7b 2341 5b10 a840
00000090: 1e3b e841 7c11 e240 de74 b240 c0c3 b640
000000a0: d5dd b641 c4e1 be40 a9bc 3741 07ff 2041
000000b0: c6b8 4041 1e89 9140 c75e d040 806e 8241
000000c0: 26c8 d540 4dde d540 f15c 9340 6d2e c440
000000d0: 8f9b 1b41 78b4 8040 ff1d 9c40 64d2 9340
000000e0: 7c89 4e41 b369 7240 60cc 8140 df57 6c40
000000f0: 7c89 1e41 cd8f 2341 3761 ee40 85fb 3841
00000100: a742 0741 9aba 3840 ece3 2140 2854 8941
00000110: 6bb7 ba40 643e a640 1328 f240 4728 ab40
00000120: c621 b640 e696 0141 cb8e a941 b31e 9c40
00000130: 9eac 5441 0e9f a540 6b32 4740 e942 a640
00000140: 4db6 5840 1fbd a640 60b6 be40 f3ef dd40
00000150: e842 0b41 d7d4 bf40 4452 8440 e8b5 ea3f
00000160: 43d2 0641 63aa 7d40 dfa3 c040 d26e 6240
00000170: e1d5 b140 ea16 cc40 95d8 ae40 8337 0241
00000180: f5e9 a440 ad13 8740 4b63 8440 b064 ae40
00000190: 1545 a640 fe2a 6240 1ff4 7840 a794 c640
000001a0: b309 a240 9e17 8a40 8ac8 dc40 af7c 4040
000001b0: 440d 2041 ae5d 7640 2226 8840 6f37 a440
000001c0: 6e90 e840 5c0b 8540 ddc2 fe40 afb0 4041
000001d0: 1b12 0c41 bc4f 9640 e002 9441 56b0 b940
000001e0: a224 ce40 23da 2941 933e 8740 a92a 9140
000001f0: 0b97 e940 a162 0441 1baf 8740 39db 8240

net.3.weight f4 [128, 128]
-0.002359053 0.008226503 0.018598406 0.04291617 0.0065905116 -0.021869507 -0.0051225466 0.12336578
0.047907315 0.05661628 -0.067164615 0.0049783057 -0.039700117 -0.057126258 0.09961328 -0.04920449
0.025060039 0.0375283 0.043416016 0.0774944 -0.05228184 0.061478015 -0.06455969 -0.057913624
0.07052964 -0.059659667 -0.012510656 0.01883177 0.097823024 -0.0017007908 -0.02046736 -0.0041908766
-0.0006056082 -0.0064116744 0.11834717 -0.013957741 -0.09478064 -0.034275144 7.431649e-05 0.04762152
0.106373124 -0.0048708986 -0.21760538 0.025037825 0.04743393 -0.06754558 -0.04479961 0.0709853
-0.024718173 -0.008740198 -0.062611155 0.046823625 -0.035296 0.021109903 0.029136652 0.029454902
0.05402075 -0.06047536 -0.007820107 -0.020435812 -0.0762895 -0.031486012 -0.023915851 0.043073796
0.03490602 -0.13025612 -0.014732031 -0.03292968 -0.051922835 0.08679164 -0.15746492 -0.01013725
0.05875496 -0.101991914 -0.03931248 -0.20876019 0.036839385 -0.017367488 0.21250004 0.024689743
-0.0019670809 -0.0359523 -0.008904725 -0.046975713 0.02459032 0.011453559 0.035233002 -0.09875069
0.019318439 0.01823937 0.038401715 0.05174392 -0.056110833 -0.011061594 0.018722935 0.29742008
-0.009795012 0.06227825 0.09672375 -0.011663197 0.053404085 0.10745439 -0.06351904 -0.0073853834
0.004169223 0.068976484 0.064467296 0.061333895 -0.073987134 0.009279988 0.014641634 -0.017651176
0.075553685 0.014455542 -0.066670604 0.10291359 0.09781089 0.031528812 -0.028255848 -0.044922933
0.056171298 0.10455939 0.033332195 -0.018710112 0.03497035 -0.04208752 -0.01623149 0.028627796
0.079972774 -0.08490097 0.08159531 -0.03465269 0.06364181 0.04241187 0.029055918 -0.03658704
-0.040779248 0.049485493 -0.08929404 0.007950361 -0.0070802635 0.072937235 -0.11313358 -0.08874319
0.069172785 0.015185832 -0.035840973 0.15782654 -0.14435367 0.030148424 -0.10921395 -0.041228257
0.019820444 -0.053425066 -0.098477796 0.037306927 -0.0029807843 0.055406444 0.10275005 -0.06593208
0.052070584 -0.009007807 0.049344394 -0.027479121 0.049445614 -0.038369868 0.114855036 -0.047564898
0.046137102 0.036090452 -0.110728614 0.007535903 -0.12985282 -0.06703703 -0.007152621 0.0436761
-0.021739373 0.06757 -0.048437797 -0.0779855 0.05934235 -0.008879349 0.060644217 -0.07454683
0.005988851 -0.12218469 -0.0013570642 0.017299019 0.01748787 -0.03661668 0.09548323 0.05149819
0.07856304 0.01588213 0.15088859 0.14408635 0.08434451 -0.0002411745 0.08720079 -0.036860123
-0.05291526 0.0378165 -0.029443467 -0.013629003 0.036289845 0.1041035 0.06715029 -0.031075813
-0.053215235 -0.12657088 0.051832844 0.027480992 -0.092982344 -0.09097666 -0.013540175 -0.014809129
-0.076775365 0.04442758 0.06854947 0.068365656 -0.1318489 0.049921148 -0.088364065 0.21436651
-0.102923386 -0.029806571 -0.024079554 0.12399312 0.029330617 -0.0049755233 0.04967089 -0.056207646
0.04786512 -0.025733769 -0.14110431 0.05134608 0.0033712038 -0.05775818 -0.045041826 -0.117906146
0.14633067 0.015956357 -0.11054883 0.009261765 -0.17034133 0.044860676 -0.088893995 -0.021548603
-0.11059787 0.03292498 -0.0759937 0.027201815 -0.021369444 0.09496993 -0.10849377 0.009822373
00000000: 579a 1abb 74c8 063c af5b 983c dec8 2f3d
00000010: 38f5 d73b ae27 b3bc 09db a7bb 33a7 fc3d
00000020: 763a 443d 79e6 673d 9a8d 89bd 0e21 a33b
00000030: 979c 22bd 39fd 69bd 0c02 cc3d a68a 49bd
00000040: b64a cd3c 46b7 193d fed4 313d 62b5 9e3d
00000050: 7c25 56bd 5fd0 7b3d df37 84bd d636 6dbd
00000060: d871 903d b25d 74bd 7ff9 4cbc 1645 9a3c
00000070: 7057 c83d 12ed deba 2aab a7bc 9f53 89bb
00000080: aec1 1eba 0619 d2bb 0060 f23d 02af 64bc
00000090: 5a1c c2bd 1864 0cbd 5dda 9b38 c80e 433d
000000a0: 27da d93d 0f9c 9fbb f2d3 5ebe 201c cd3c
000000b0: 154a 423d 5655 8abd cc7f 37bd be60 913d
000000c0: c47d cabc 0c33 0fbc 473a 80bd 21ca 3f3d
000000d0: 8a92 10bd adee ac3c fdaf ee3c 684b f13c
000000e0: dd44 5d3d 03b5 77bd e81f 00bc 0169 a7bc
000000f0: ab3d 9cbd 7af7 00bd 2deb c3bc 266e 303d
00000100: 9df9 0e3d dc61 05be 9e5e 71bc 46e1 06bd
00000110: 0aad 54bd d1bf b13d 7c3e 21be b516 26bc
00000120: 0aa9 703d 23e1 d0bd 1f06 21bd 3bc5 55be
00000130: e5e4 163d 4346 8ebc 9c99 593e 2542 ca3c
00000140: 24ea 00bb b842 13bd 20e5 11bc 9b69 40bd
00000150: a471 c93c b5a7 3b3c 7b50 103d cd3d cabd
00000160: b441 9e3c bb6a 953c 1e4b 1d3d 6ff1 533d
00000170: 79d4 65bd b03b 35bc d760 993c 7247 983e
00000180: 427b 20bc 7a17 7f3d 1a17 c63d fe16 3fbc
00000190: 3ebe 5a3d 0c11 dc3d 4516 82bd 1601 f2bb
000001a0: fa9d 883b 8b43 8d3d 6e07 843d 4039 7b3d
000001b0: 9186 97bd 170b 183c 77e3 6f3c 3399 90bc
000001c0: e4bb 9a3d f0d6 6c3c 998a 88bd 5cc4 d23d
000001d0: 1351 c83d 5b24 013d cf78 e7bc 1c01 38bd
000001e0: e013 663d 3c23 d63d 5787 083d f345 99bc
000001f0: 123d 0f3d f763 2cbd e7f7 84bc d784 ea3c
00000200: c4c8 a33d 8fe0 adbd 711b a73d fbef 0dbd
00000210: a356 823d 12b8 2d3d ad06 ee3c 4bdc 15bd
00000220: 2408 27bd 4db1 4a3d cbdf b6bd 3b42 023c
00000230: 8e01 e8bb 1e60 953d 94b2 e7bd fdbe b5bd
00000240: 76aa 8d3d ffcd 783c fccd 12bd 489d 213e
00000250: 73d1 13be d4f9 f63c 90ab dfbd f6de 28bd
00000260: 7c5e a23c 3ed4 5abd baae c9bd 26cf 183d
00000270: 4359 43bb def1 623d 9e6e d23d 6607 87bd
00000280: f747 553d 7b95 13bc 591d 4a3d e51b e1bc
00000290: 7c87 4a3d b929 1dbd 1e39 eb3d 69d3 42bd
000002a0: 42fa 3c3d 95d3 133d afc5 e2bd bcef f63b
000002b0: 23f8 04be b64a 89bd 8960 eabb b6e5 323d
000002c0: c516 b2bc 2462 8a3d b666 46bd ddb6 9fbd
000002d0: f710 733d b07a 11bc 1266 783d 02ac 98bd
000002e0: 203e c43b f73b fabd 85df b1ba acb6 8d3c
000002f0: b942 8f3c 5ffb 15bd b68c c33d c4ef 523d
00000300: a9e5 a03d 3e1b 823c 8a82 1a3e 5f8b 133e
00000310: d1bc ac3d c9e3 7cb9 5496 b23d a4fa 16bd
00000320: acbd 58bd 79e5 1a3d 6d33 f1bc 2f4c 5fbc
00000330: a9a4 143d 3734 d53d 1786 893d b492 febc
00000340: 38f8 59bd cc9b 01be ad4e 543d d11f e13c
00000350: 876d bebd f951 babd 9cd7 5dbc fda1 72bc
00000360: 673c 9dbd b2f9 353d aa63 8c3d 4b03 8c3d
00000370: 6603 07be 1e7a 4c3d 38f8 b4bd e582 5b3e
00000380: 7fc9 d2bd e92c f4bc 7c42 c5bc 1bf0 fd3d
00000390: c346 f03c b709 a3bb b473 4b3d fd39 66bd
000003a0: 370e 443d a0cf d2bc a67d 10be 4450 523d
000003b0: 6aef 5c3b d793 6cbd c77d 38bd c778 f1bd
000003c0: b5d7 153e e8b6 823c 6d67 e2bd a8be 173c
000003d0: f56d 2ebe d4bf 373d 0e0e b6bd b286 b0bc
000003e0: 2381 e2bd 58dc 063d 96a2 9bbd 57d6 de3c
000003f0: f90e afbc 987f c23d fb31 debd 05ee 203c

net.3.bias f4 [128]
8.1698246e-08 -2.5559174e-07 4.6453624e-07 -4.1445654e-07 -1.9259477e-07 2.371711e-07 -6.1754844e-07 7.36462e-07
-4.6527506e-07 -1.03937396e-07 -3.2272794e-07 -9.898263e-08 -1.6346424e-07 -4.6728496e-07 1.9346729e-07 -9.141422e-09
1.1108655e-07 -1.1549261e-07 5.2944852e-08 1.3996771e-07 -6.0969506e-07 -4.4949168e-08 -3.5066364e-07 2.9767511e-07
-1.07345485e-07 1.0583523e-07 8.1316824e-07 -3.8819067e-07 4.961294e-07 7.300468e-08 4.875532e-07 2.2482414e-08
2.2008658e-07 2.3122365e-07 -7.536039e-08 4.2132353e-07 -1.3012222e-07 1.201017e-07 -1.8167252e-07 2.8522194e-07
-1.5175854e-07 -9.3652744e-08 -2.5880219e-08 -1.1726467e-08 1.5229449e-07 -2.8239634e-07 -3.76154e-07 -1.03574095e-07
5.6540493e-08 3.761616e-07 3.662692e-07 2.0100718e-07 3.3100494e-07 -1.3561979e-07 -1.4235334e-07 3.3100406e-07
-1.7872703e-07 -1.8308998e-07 2.2348082e-07 3.5944683e-07 -5.579721e-08 -1.3542058e-07 -1.0533165e-07 -1.8640279e-08
-2.5497513e-07 2.4942443e-07 -1.1550402e-07 1.1276742e-07 -2.2246624e-07 -4.2541973e-07 -2.0483388e-07 -2.28745e-07
-5.296178e-08 8.2917484e-07 -1.2085061e-07 3.821538e-08 7.234307e-07 3.181927e-07 1.5212777e-08 4.1590532e-08
-3.646008e-07 -1.3191207e-06 -1.795894e-08 -1.976826e-07 1.4648325e-07 1.12508936e-08 3.4781928e-07 -4.3197588e-07
-6.423412e-08 -1.4806425e-07 4.83406e-08 -2.3325829e-07 -5.680091e-07 1.4151782e-07 1.6158325e-06 2.9027124e-08
-3.7554494e-07 3.271419e-07 -1.5046925e-07 -1.727643e-07 -1.1375187e-07 -3.9343956e-08 -5.2396007e-07 4.9560455e-08
-6.892661e-08 2.2538532e-07 2.4748957e-07 -4.6345664e-07 -4.753542e-08 -1.1039413e-07 -3.620283e-07 3.893726e-08
-1.5285946e-07 -3.8295664e-07 2.2840183e-09 1.0420745e-07 2.677306e-07 4.5367022e-07 1.0421343e-06 -1.8049123e-07
-4.7592886e-07 4.1893082e-07 6.6552775e-07 -7.199384e-08 2.5311772e-07 -4.3796643e-07 4.3189982e-07 4.6326274e-08
00000000: 1672 af33 4338 89b4 6065 f934 7982 deb4
00000010: 0ccc 4eb4 18a9 7e34 9bc5 25b5 49b1 4535
00000020: ebca f9b4 3034 dfb3 6443 adb4 4790 d4b3
00000030: b584 2fb4 28df fab4 e2bb 4f34 660c 1db2
00000040: 7a8e ee33 bc04 f8b3 7b65 6333 084a 1634
00000050: eda9 23b5 220e 41b3 d842 bcb4 28d0 9f34
00000060: ce85 e6b3 8847 e333 7f48 5a35 8568 d0b4
00000070: c12d 0535 bfc6 9c33 67e0 0235 5a1f c132
00000080: f050 6c34 4646 7834 d0d5 a1b3 4432 e234
00000090: b9b7 0bb4 4ef5 0034 c311 43b4 9b20 9934
000000a0: 12f3 22b4 241e c9b3 344f deb2 8c75 49b2
000000b0: 6486 2334 429c 97b4 36f2 c9b4 766c deb3
000000c0: eed6 7233 42f3 c934 a8a3 c434 6fd4 5734
000000d0: f9b4 b134 e29e 11b4 cad9 18b4 dab4 b134
000000e0: 1de8 3fb4 6497 44b4 f1f5 6f34 fff9 c034
000000f0: aea5 6fb3 2068 11b4 b032 e2b3 681e a0b2
00000100: 84e3 88b4 a2e8 8534 020b f8b3 8b2a f233
00000110: 0edf 6eb4 3e65 e4b4 4ff0 5bb4 f29c 75b4
00000120: 1878 63b3 7694 5e35 2ac3 01b4 4122 2433
00000130: c731 4235 12d4 aa34 40ad 8232 46a1 3233
00000140: 5abe c3b4 a40c b1b5 2044 9ab2 9442 54b4
00000150: 0249 1d34 f449 4132 ebbb ba34 50ea e7b4
00000160: 15f1 89b3 97fb 1eb4 0d9f 4f33 8d75 7ab4
00000170: 4a79 18b5 1ff4 1734 95df d835 5257 f932
00000180: 819e c9b4 0aa2 af34 ac90 21b4 1781 39b4
00000190: c047 f4b3 23fb 28b3 43a6 0cb5 4cdc 5433
000001a0: ce04 94b3 7201 7234 b5de 8434 ffd0 f8b4
000001b0: bf29 4cb3 d111 edb3 ca5c c2b4 f83b 2733
000001c0: b021 24b4 2999 cdb4 e0f4 1c31 a7c8 df33
000001d0: 9dbc 8f34 f68f f334 76df 8b35 0dcd 41b4
000001e0: 2a83 ffb4 6ae9 e034 b8a6 3235 089b 9ab3
000001f0: 3ce4 8734 a621 ebb4 dcdf e734 47f8 4633

net.4.weight f4 [128]
1.0468123 0.835741 0.7800744 0.7759063 0.77521783 0.73765844 0.8216212 0.8455754
0.8583626 0.7624075 0.7008052 0.7207477 0.7782276 0.87392396 0.7417938 0.7103135
0.8515681 0.85799855 0.9388987 0.8899908 0.7322577 0.87667334 0.87651515 0.9059058
0.8168755 0.9056359 0.8546152 0.7981843 0.87484 0.9193901 0.85023314 0.8104959
0.8436697 0.8061092 0.67150366 0.8358363 0.7189964 1.0192666 0.8204745 0.7211974
0.88950676 0.65449023 0.75945586 0.9418465 0.850773 0.91386825 0.8627094 0.87921023
0.782302 0.6866271 0.6602161 0.7110973 0.7931803 0.8306713 0.84491086 1.1084942
0.9274761 0.7828062 0.8852335 0.68385965 0.92099506 0.691052 0.8459668 0.75630766
0.6020007 0.7639267 0.892213 0.7616669 0.7991911 0.8255978 0.70531726 0.8305021
0.792148 0.8827683 0.8659424 0.84811395 0.81899744 0.72729963 0.6410288 0.8405759
0.77853864 0.97609955 0.58998024 0.8295804 0.81217855 0.9451941 0.89318895 0.96572965
0.8581873 0.7200766 0.8842538 0.88081723 0.9672229 0.9409732 0.86268187 0.80855864
1.0214529 0.8026631 0.7204189 0.58272994 0.8751915 0.71471983 0.736241 0.7089893
0.84382373 0.789902 0.71191496 0.82617027 0.6298796 0.82907695 0.9038384 0.9113107
0.84494495 0.91889447 0.51526856 0.8229307 0.7538601 0.96844333 0.9177372 0.7195654
0.8026706 0.965639 0.7823716 0.74590033 0.9511498 0.9009678 0.83920395 0.8435195
00000000: f2fd 853f 1ff3 553f f5b2 473f cca1 463f
00000010: ad74 463f 2fd7 3c3f c455 523f a177 583f
00000020: a7bd 5b3f 232d 433f f867 333f ec82 383f
00000030: ed39 473f 7bb9 5f3f 33e6 3d3f 1bd7 353f
00000040: 5e00 5a3f cba5 5b3f aa5b 703f 70d6 633f
00000050: 3e75 3b3f aa6d 603f 4c63 603f 71e9 673f
00000060: c11e 513f c1d7 673f 10c8 5a3f ce55 4c3f
00000070: 84f5 5f3f 265d 6b3f e1a8 593f a97c 4f3f
00000080: bdfa 573f 2c5d 4e3f aae7 2b3f 5ef9 553f
00000090: 2610 383f 5477 823f 9e0a 523f 65a0 383f
000000a0: b7b6 633f ac8c 273f b36b 423f da1c 713f
000000b0: 42cc 593f 45f3 693f 86da 5c3f ec13 613f
000000c0: f244 483f cbc6 2f3f ec03 293f 790a 363f
000000d0: dd0d 4b3f e0a6 543f 144c 583f 23e3 8d3f
000000e0: 136f 6d3f fd65 483f aa9e 623f 6d11 2f3f
000000f0: 55c6 6b3f c9e8 303f 4891 583f 619d 413f
00000100: b81c 1a3f b390 433f 1268 643f 9afc 423f
00000110: ca97 4c3f 615a 533f ac8f 343f c99b 543f
00000120: 36ca 4a3f 1afd 613f 67ae 5d3f ff1d 593f
00000130: d1a9 513f 4f30 3a3f 771a 243f fb2f 573f
00000140: 4f4e 473f a9e1 793f f208 173f 625f 543f
00000150: efea 4f3f 3ef8 713f 08a8 643f 0f3a 773f
00000160: 2ab2 5b3f f156 383f 755e 623f 3d7d 613f
00000170: ec9b 773f 9fe3 703f b8d8 5c3f b3fd 4e3f
00000180: f8be 823f 547b 4d3f 5f6d 383f ca2d 153f
00000190: 8d0c 603f e1f7 363f 4a7a 3c3f 5380 353f
000001a0: d504 583f 0437 4a3f 0f40 363f e57f 533f
000001b0: ca3f 213f 633e 543f f461 673f a84b 693f
000001c0: 504e 583f ab3c 6b3f a4e8 033f 96ab 523f
000001d0: fafc 403f e7eb 773f d3f0 6a3f 7035 383f
000001e0: d27b 4d3f 1e34 773f 8149 483f 53f3 3e3f
000001f0: 8e7e 733f d3a5 663f 12d6 563f e5f0 573f

net.4.bias f4 [128]
0.15078406 -0.042876635 -0.07673404 -0.09841109 0.010102438 -0.08574758 -0.18560518 -0.01823714
-0.018716458 -0.18473536 -0.10450534 -0.10199296 0.13099869 -0.18317327 -0.084702894 -0.036920454
-0.037258692 -0.105273835 -0.20010161 -0.029014807 -0.37386668 -0.053931754 -0.0154821975 -0.027731663
-0.0487649 -0.09844463 -0.13081408 -0.09980828 0.0076014996 0.05527942 -0.031499863 0.06278774
-0.14507435 -0.003527844 -0.11339849 -0.1038358 -0.084910855 -0.022782084 -0.040498506 0.09454633
-0.013111387 -0.019022057 -0.21175455 -0.16359429 -0.1988068 0.14506146 -0.04465073 -0.057132937
-0.14816579 -0.070441745 -0.29416013 -0.10509999 -0.1575939 -0.033368304 -0.014473073 -0.028883398
-0.11726131 -0.24033806 -0.082166314 -0.09231565 -0.15260197 -0.12015277 -0.04263657 -0.13367596
0.0045431745 -0.09811159 -0.08098435 -0.10287067 0.022566993 -0.0763772 -0.055149335 -0.076291405
-0.142285 -0.08506389 -0.124301806 -0.020545376 -0.15578741 -0.1116597 -0.022154583 -0.1858361
-0.03581702 -0.081016235 -0.054192513 0.081698835 -0.07096657 0.032157153 -0.035572898 -0.04057468
0.018510474 -0.10483202 -0.13301049 0.11412985 0.10539229 -0.12769574 -0.14354151 -0.04202183
-0.28767675 -0.11784381 -0.011582039 0.011408377 -0.006402743 -0.14794081 -0.06649243 -0.13731517
-0.171658 -0.079549864 -0.037675768 -0.10674249 -0.17523982 -0.048931587 -0.06665194 -0.06505663
-0.0956808 -0.14792997 -0.07719187 -0.06771897 -0.08707144 -0.04677093 -0.28355166 0.07766121
-0.13825612 -0.21225415 -0.15638915 -0.043651026 0.037366528 -0.100138105 -0.052997522 -0.14024316
00000000: 2367 1a3e 699f 2fbd bd26 9dbd c18b c9bd
00000010: b284 253c 6d9c afbd 490f 3ebe 0e66 95bc
00000020: 4253 99bc 442b 3dbe e506 d6bd afe1 d0bd
00000030: 8524 063e c691 3bbe b678 adbd e739 17bd
00000040: 929c 18bd cf99 d7bd 70e7 4cbe 76b0 edbc
00000050: 746b bfbe 8be7 5cbd 0ba9 7dbc 832d e3bc
00000060: b4bd 47bd 579d c9bd 20f4 05be 4968 ccbd
00000070: 0016 f93b ac6c 623d 0006 01bd dc96 803d
00000080: 5f8e 14be 6733 67bb 783d e8bd dda7 d4bd
00000090: bee5 adbd 7ea1 babc c3e1 25bd 82a1 c13d
000000a0: 25d1 56bc 25d4 9bbc 2fd6 58be 4385 27be
000000b0: 0394 4bbe fe8a 143e afe3 36bd 3a04 6abd
000000c0: c6b8 17be c343 90bd 289c 96be aa3e d7bd
000000d0: 4c60 21be 34ad 08bd 7820 6dbc e09c ecbc
000000e0: b326 f0bd 2e1b 76be d046 a8bd fd0f bdbd
000000f0: b143 1cbe a812 f6bd afa3 2ebd 5ae2 08be
00000100: e9de 943b bbee c8bd 1fdb a5bd dcad d2bd
00000110: 6ade b83c a66b 9cbd 45e4 61bd ab3e 9cbd
00000120: 29b3 11be fa35 aebd f291 febd c74e a8bc
00000130: bc86 1fbe d7ad e4bd 877d b5bc d24b 3ebe
00000140: deb4 12bd d7eb a5bd f8f8 5dbd b851 a73d
00000150: ec56 91bd 38b7 033d e3b4 11bd a331 26bd
00000160: 47a3 973c 2cb2 d6bd e733 08be e9bc e93d
00000170: ead7 d73d acc2 02be 8cfc 12be 151f 2cbd
00000180: 5e4a 93be 1858 f1bd 98c2 3dbc 34ea 3a3c
00000190: 1ace d1bb cc7d 17be 2f2d 88bd 599c 0cbe
000001a0: 1dc7 2fbe 0aeb a2bd e851 1abd ce9b dabd
000001b0: 1172 33be 7d6c 48bd d080 88bd 693c 85bd
000001c0: 4cf4 c3bd f47a 17be c516 9ebd 3eb0 8abd
000001d0: 8352 b2bd e092 3fbd af2d 91be d70c 9f3d
000001e0: 0393 0dbe 2759 59be 7a24 20be 6bcb 32bd
000001f0: a50d 193d 3515 cdbd ee13 59bd e79b 0fbe

net.4.running_mean f4 [128]
0.26609084 -0.022614134 -0.42790923 -0.75358945 -0.028893221 -0.15599336 0.022993337 -0.16731186
-0.346482 0.50567645 -0.41020873 -0.026325451 0.34483132 0.72870433 -0.30138165 -0.32801765
0.05321285 0.18606047 0.65662277 0.48718125 0.3380517 0.24793871 -0.46277714 -0.3161742
0.1265479 0.344446 0.411932 -0.59228283 -0.23531428 -0.3991483 -0.4840707 -0.4043492
-0.26355618 -0.3494838 -0.08530031 0.44811225 -0.10336946 0.20048974 -0.20322317 0.12676133
0.28858134 -0.15776712 -0.40983695 0.7936367 0.09605482 -0.0749348 -0.30034283 0.15389931
0.042502787 0.2537212 0.2524205 -0.06772736 0.06880868 -0.50415605 -0.37382257 -0.3825066
0.02326903 -0.17955673 -0.8032269 -0.04920334 0.7232293 -0.16610123 -0.46212065 -0.45180792
0.2630768 0.25675496 0.29635257 0.3987383 0.026226468 -0.36006925 0.059446488 0.5574012
0.02338693 -0.3870735 0.60021335 -0.5435444 0.26210082 0.35168353 -0.13542226 0.6738696
-0.3984158 -0.79196 0.27097148 -0.49902186 0.0829316 0.11578053 -0.5725198 -0.81553
-0.29874748 -0.64603615 -0.59147954 -0.6733099 -0.3879392 0.75640947 0.7295045 -0.3758205
0.85775805 0.1556969 -0.054421958 -0.22786923 -0.36217028 -0.0077339862 -0.39861378 0.025813524
0.11343421 0.41104248 -0.4813485 -0.028967464 0.13196328 0.77711385 0.42714262 -0.124529615
-0.1598403 0.35982087 -0.27861136 -0.16317736 0.49458998 -0.60487324 0.6842093 -0.4297967
0.028839368 0.83677024 -0.42453212 0.06597099 -0.6890432 0.6890364 -0.3290851 0.5824083
00000000: 0f3d 883e 4741 b9bc eb16 dbbe 3deb 40bf
00000010: 7ab1 ecbc b9bc 1fbe 865c bc3c cd53 2bbe
00000020: 1766 b1be 0374 013f e106 d2be 79a8 d7bc
00000030: bb8d b03e 5e8c 3a3f b24e 9abe eef1 a7be
00000040: b8f5 593d a386 3e3e 6e18 283f d26f f93e
00000050: 1d15 ad3e a5e3 7d3e 20f1 ecbe 96e1 a1be
00000060: c695 013e 3a5b b03e c0e8 d23e d99f 17bf
00000070: 3af6 70be 2a5d ccbe 1dd8 f7be dc06 cfbe
00000080: d6f0 86be 8aef b2be eeb1 aebd f86e e53e
00000090: 5eb3 d3bd 2f4d 4d3e bc19 50be b9cd 013e
000000a0: efc0 933e b48d 21be 26d6 d1be c62b 4b3f
000000b0: 64b8 c43d 6b77 99bd 89c6 99be c897 1d3e
000000c0: 6717 2e3d bfe7 813e 433d 813e a4b4 8abd
000000d0: 91eb 8c3d 5f10 01bf ac65 bfbe e8d7 c3be
000000e0: b19e be3c b8dd 37be 47a0 4dbf 7189 49bd
000000f0: 8e25 393f 7116 2abe 149b ecbe 5e53 e7be
00000100: 01b2 863e 6375 833e 86bb 973e 6d27 cc3e
00000110: e4d8 d63c ff5a b8be 297e 733d d8b1 0e3f
00000120: f295 bf3c 7f2e c6be 95a7 193f ba25 0bbf
00000130: 1432 863e dd0f b43e 22ac 0abe b882 2c3f
00000140: 28fd cbbe e4bd 4abf c6bc 8a3e cb7f ffbe
00000150: 0bd8 a93d 581e ed3d a890 12bf 93c6 50bf
00000160: 6ef5 98be a062 25bf 346b 17bf 0a5e 2cbf
00000170: f89f c6be 0da4 413f cfc0 3a3f 8b6b c0be
00000180: 0896 5b3f 026f 1f3e 8fe9 5ebd 8d56 69be
00000190: 626e b9be 616d fdbb 1b17 ccbe e276 d33c
000001a0: 3250 e83d 2974 d23e 5073 f6be 2d4d edbc
000001b0: 6221 073e eff0 463f 70b2 da3e 6209 ffbd
000001c0: 2dad 23be 713a b83e 26a6 8ebe f717 27be
000001d0: e63a fd3e f9d8 1abf 5728 2f3f 500e dcbe
000001e0: 8a40 ec3c 9336 563f 465c d9be cc1b 873d
000001f0: 2365 30bf b164 303f d87d a8be b618 153f

net.4.running_var f4 [128]
0.54421884 0.21697792 0.22432123 0.2844081 0.3075865 0.19620387 0.1966601 0.49251437
0.25300255 0.71987593 0.2981077 0.20866452 0.3494029 0.8344137 0.20605458 0.13033576
0.153569 0.20775223 1.3233262 0.5480872 0.11809894 0.74990857 0.32548264 0.79900056
0.961982 0.29332525 0.18586682 0.30237776 0.16680647 0.67336214 0.4312241 0.5077247
0.84215987 0.24228589 0.13578548 0.38157934 0.20646095 0.51621515 0.36662292 0.7508482
0.49174616 0.25903177 0.2455846 0.7166751 0.26283157 0.3245098 0.32125497 0.44335172
0.53408384 0.17252037 0.12432053 0.2329901 0.53459716 0.35451853 0.36255524 0.5529533
0.29265854 0.20160098 0.8906936 0.27279678 0.7205872 0.14493506 0.69891065 0.19080481
0.13605088 0.48861033 1.1138875 0.2607574 0.269147 0.4834369 0.17616971 0.3029667
0.15713486 0.3004417 0.66831684 0.18487588 0.3036084 0.17980787 0.15600058 1.12579
0.26689687 0.3821535 0.13704579 0.79874533 0.41564506 0.64193636 0.7116007 0.453148
0.3273293 0.269061 1.2489452 0.5860508 0.2757233 0.53738177 0.28751743 0.23310451
0.61584616 0.12379542 0.16936533 0.07875353 0.44952554 0.17729154 0.23676358 0.15919414
0.80808794 0.3646897 0.5093062 0.5427053 0.12657054 0.3923919 0.2032965 0.648729
0.6982367 0.56273836 0.08560862 0.4605344 0.23340252 0.38028657 0.21990062 0.2716023
0.18917593 1.1974003 0.1847569 0.29687503 1.0069972 0.8356239 0.19180201 0.61861795
00000000: ed51 0b3f 762f 5e3e 77b4 653e f09d 913e
00000010: fa7b 9d3e abe9 483e 4461 493e d82a fc3e
00000020: 8d89 813e ca49 383f 93a1 983e 27ac 553e
00000030: f0e4 b23e 239c 553f f9ff 523e bd76 053e
00000040: 3141 1d3e 00bd 543e c162 a93f 714f 0c3f
00000050: dbdd f13d 02fa 3f3f a9a5 a63e 4d8b 4c3f
00000060: 7444 763f ba2e 963e df53 3e3e 42d1 9a3e
00000070: 51cf 2a3e 7661 2c3f 68c9 dc3e 3ffa 013f
00000080: ca97 573f cb19 783e 590b 0b3e 5e5e c33e
00000090: 806a 533e ad26 043f 00b6 bb3e 9637 403f
000000a0: 27c6 fb3e d09f 843e 887a 7b3e 0578 373f
000000b0: dc91 863e 2626 a63e 887b a43e fffe e23e
000000c0: b8b9 083f 2ea9 303e c39b fe3d f594 6e3e
000000d0: 5cdb 083f 7483 b53e d7a0 b93e 598e 0d3f
000000e0: 57d7 953e 7d70 4e3e 7f04 643f 05ac 8b3e
000000f0: 6778 383f db69 143e cfeb 323f 5662 433e
00000100: ec50 0b3e 222b fa3e de93 8e3f fe81 853e
00000110: a3cd 893e 0b85 f73e d565 343e 741e 9b3e
00000120: f6e7 203e 7fd3 993e d016 2b3f 1a50 3d3e
00000130: 8f72 9b3e 8e1f 383e 9ebe 1f3e e319 903f
00000140: b5a6 883e a0a9 c33e bb55 0c3e 937a 4c3f
00000150: 6ecf d43e f155 243f 772b 363f 0403 e83e
00000160: b597 a73e 5dc2 893e 70dd 9f3f 6d07 163f
00000170: 9b2b 8d3e da91 093f 7c35 933e f3b2 6e3e
00000180: 18a8 1d3f 7488 fd3d 1b6e 2d3e 8849 a13d
00000190: 3628 e63e ea8b 353e 2772 723e ca03 233e
000001a0: dade 4e3f 9cb8 ba3e e461 023f bcee 0a3f
000001b0: b59b 013e 97e7 c83e f52c 503e 1b13 263f
000001c0: a4bf 323f 9f0f 103f 9253 af3d 2acb eb3e
000001d0: 1201 6f3e ecb4 c23e a12d 613e 750f 8b3e
000001e0: 56b7 413e 6a44 993f ea30 3d3e 0100 983e
000001f0: 49e5 803f 73eb 553f bf67 443e bf5d 1e3f

net.6.weight f4 [128, 128]
-0.069653176 0.0120753255 0.03731331 -0.17374204 -0.10744112 -0.0159292 -0.09217144 -0.0067843734
-0.08212131 -0.066591084 0.049855024 0.04056459 0.083876096 0.052477106 -0.024017205 0.005582226
0.11003801 -0.014866598 -0.018794445 0.022732941 0.022818375 0.14317375 -0.18257183 0.01866472
-0.056745384 -0.033813287 0.09372542 0.029869953 0.04497897 -0.13530162 0.0030788286 -0.028212296
0.065494604 0.035559352 -0.045272026 -0.034140658 0.061720166 0.024077136 0.037169237 0.10479242
-0.11874169 -0.00311826 -0.076842055 0.0401546 -0.013415072 0.053442873 -0.010521455 0.034819864
0.034894202 0.117661305 -0.026997827 -0.028328842 -0.09887493 0.0111137 -0.04952543 0.022368282
0.031175641 -0.1150339 -0.07981415 0.04161352 0.033573434 0.024074385 -0.20659132 0.018779416
0.0026937998 0.0012275936 0.113746665 0.06191749 0.054243453 -0.0123868445 -0.07039313 0.042666815
-0.011811008 -0.113851346 0.06357477 0.006876977 -0.08508076 0.008792158 -0.037830804 0.10652593
0.087745704 -0.018830702 -0.046807576 -0.0316772 0.0015577521 0.077849 0.04033788 -0.1502842
-0.065662466 -0.046107944 -0.070531465 -0.24759656 -0.0653795 0.030443324 -0.057369545 0.005053793
-0.10012165 -0.041045934 0.06768078 0.0039893887 0.082808785 0.029389026 0.05584975 -0.0011078758
-0.0077355094 0.029460369 -0.17149715 -0.14085288 0.013707822 0.056904525 0.07556487 -0.104932874
-0.018043566 -0.012703443 0.03239568 -0.014070474 0.07427249 0.018541992 -0.097772524 -0.03924183
-0.049551908 0.010982497 -0.043417852 -0.042236317 -0.16665736 0.055932127 -0.028934045 -0.032547314
0.084272586 0.16407502 0.090498835 -0.034564536 0.13291478 0.013195481 -0.038036995 -0.037440028
-0.024374759 0.1048826 -0.03831495 0.050919548 0.011330377 0.08615237 0.109505005 0.057530418
-0.010616884 -0.06753136 0.07659646 0.122862704 -0.105366826 -0.04282664 0.023555677 -0.068294555
0.07762291 0.08637977 0.1486965 0.055903867 0.021362908 0.1058395 -0.005200031 -0.031337235
0.0005383972 0.023099119 0.056215208 -4.536086e-07 -0.062075924 0.05547626 -0.046785578 0.044972576
-0.046382725 0.042254556 -0.020555967 -0.00058310357 -0.14429961 0.1348803 0.054733995 -0.042379793
0.0020103182 -0.08837893 0.06448966 -0.080422506 -0.043399073 -0.09160152 -0.07742887 -0.07721219
-0.10687916 -0.04249097 0.08435223 -0.018506674 -0.0063950913 0.025862688 0.0814302 0.100991055
-0.09517775 0.09152191 -0.020276941 -0.0064101475 0.038154982 0.07541294 -0.073332496 0.0052229557
0.008824313 -0.08868141 0.07841476 0.008530002 0.030164171 -0.04114204 -0.08255201 0.101721145
-0.034456573 -0.038353927 0.0016285658 -0.058932967 0.00856768 -0.034991033 -0.060744226 0.073364064
0.020300794 -0.006007403 0.06410796 0.05673443 -0.008118837 -0.018817907 0.02488101 0.061253127
-0.08892089 -0.0160646 0.06805627 -0.08952688 -0.07816024 0.08815344 -0.038508896 -0.06660788
0.033152223 -0.064750895 0.026006544 0.09885275 -0.0026351193 -0.04911324 -0.0054549263 -0.049758684
0.052137814 -0.02164088 -0.01983849 0.09179901 0.011790316 0.029873695 -0.05537868 0.09311897
-0.08708082 0.014995485 0.040976856 -0.07990017 -0.0051587955 0.1147609 -0.15606269 -0.031321567
00000000: 53a6 8ebd 96d7 453c d7d5 183d 6fe9 31be
00000010: 170a dcbd f47d 82bc 61c4 bcbd 734f debb
00000020: 382f a8bd e860 88bd c834 4c3d 0e27 263d
00000030: 3bc7 ab3d 3cf2 563d bbbf c4bc 1beb b63b
00000040: 9c5b e13d 0893 73bc cff6 99bc 6f3a ba3c
00000050: 9aed ba3c 249c 123e 1cf4 3abe c1e6 983c
00000060: d96d 68bd cd7f 0abd 1df3 bf3d d5b1 f43c
00000070: de3b 383d 828c 0abe 2cc6 493b 791d e7bc
00000080: 0922 863d afa6 113d 296f 39bd 13d7 0bbd
00000090: 49ce 7c3d 6a3d c53c c53e 183d 699d d63d
000000a0: d82e f3bd b95b 4cbb 5e5f 9dbd 2679 243d
000000b0: e4ca 5bbc eae6 5a3d 2e62 2cbc 469f 0e3d
000000c0: 39ed 0e3d 69f8 f03d 8c2a ddbc e311 e8bc
000000d0: f07e cabd 3d16 363c 2ddb 4abd b03d b73c
000000e0: 0f64 ff3c e596 ebbd 9a75 a3bd f072 2a3d
000000f0: 4c84 093d a537 c53c ad8c 53be 4ad7 993c
00000100: 768a 303b 35e7 a03a 03f4 e83d 329d 7d3d
00000110: 622e 5e3d 31f2 4abc 462a 90bd 66c3 2e3d
00000120: f582 41bc e52a e9bd 7d33 823d 4458 e13b
00000130: d23e aebd fc0c 103c 79f4 1abd 442a da3d
00000140: 05b4 b33d d842 9abc 4db9 3fbd f4bf 01bd
00000150: 7d2d cc3a 4c6f 9f3d 5539 253d 1ae4 19be
00000160: 0b7a 86bd afdb 3cbd cd72 90bd f489 7dbe
00000170: b0e5 85bd 4764 f93c 54fc 6abd 4a9a a53b
00000180: 940c cdbd c81f 28bd 399c 8a3d 6bb9 823b
00000190: a797 a93d 41c1 f03c b5c2 643d 2536 91ba
000001a0: 287a fdbb df56 f13c f39c 2fbe bd3b 10be
000001b0: c696 603c b814 693d c1c1 9a3d 0ce7 d6bd
000001c0: 1ad0 93bc 1a22 50bc 55b1 043d d887 66bc
000001d0: 2d1c 983d 60e5 973c f63c c8bd 0bbc 20bd
000001e0: f1f6 4abd eeef 333c ebd6 31bd fdff 2cbd
000001f0: 3aa8 2abe 1619 653d 1707 edbc 5550 05bd
00000200: 1b97 ac3d 4803 283e 7457 b93d 8b93 0dbd
00000210: d01a 083e dc31 583c aecc 1bbd b75a 19bd
00000220: 93ad c7bc b0cc d63d 23f0 1cbd 0491 503d
00000230: 0ca3 393c a770 b03d 2944 e03d 04a5 6b3d
00000240: 70f2 2dbc e24d 8abd 9bde 9c3d 719f fb3d
00000250: 90ca d7bd fd6a 2fbd d6f7 c03c 04de 8bbd
00000260: c3f8 9e3d e0e7 b03d e543 183e 74fb 643d
00000270: 4401 af3c 61c2 d83d 0665 aabb 795b 00bd
00000280: 3923 0d3a 5d3a bd3c eb41 663d 7e87 f3b4
00000290: 5343 7ebd 133b 633d 3ca2 3fbd 2a35 383d
000002a0: d0fb 3dbd 1d13 2d3d fd64 a8bc 6bdb 18ba
000002b0: 47c3 13be 101e 0a3e c130 603d 6f96 2dbd
000002c0: 8bbf 033b 0300 b5bd 2813 843d 8eb4 a4bd
000002d0: 3ac3 31bd 9499 bbbd 0793 9ebd 6d21 9ebd
000002e0: 76e3 dabd 030b 2ebd ddc0 ac3d 4f9b 97bc
000002f0: ea8d d1bb fddd d33c e0c4 a63d 66d4 ce3d
00000300: 8dec c2bd d76f bb3d d41b a6bc 370c d2bb
00000310: 6648 1c3d 1972 9a3d 592f 96bd 5425 ab3b
00000320: da93 103c 999e b5bd eb97 a03d 6cc1 0b3c
00000330: da1a f73c 8e84 28bd 0711 a9bd 2d53 d03d
00000340: 5622 0dbd 0219 1dbd 9a75 d53a b263 71bd
00000350: 745f 0c3c c252 0fbd f0ce 78bd e63f 963d
00000360: da4d a63c c0d9 c4bb 094b 833d 5d62 683d
00000370: df04 05bc 0328 9abc 43d3 cb3c 8fe4 7a3d
00000380: 281c b6bd e899 83bc 1661 8b3d de59 b7bd
00000390: 7a12 a0bd ca89 b43d 81bb 1dbd b669 88bd
000003a0: a0ca 073d 1e9c 84bd ad0b d53c 5073 ca3d
000003b0: f7b1 2cbb f72a 49bd 3dbf b2bb c3cf 4bbd
000003c0: 768e 553d 3748 b1bc 5484 a2bc 1f01 bc3d
000003d0: 2b2c 413c aeb9 f43c c1d4 62bd 29b5 be3d
000003e0: 6e57 b2bd 9faf 753c 59d7 273d b3a2 a3bd
000003f0: 1d0b a9bb c307 eb3d e6ce 1fbe 0b4b 00bd
